利用MNIST数据集进行0-9的数字识别/model/model.pkl (torch, 224741 bytes, 10 tensors)

conv1.weight f4 [10, 1, 5, 5]
000000 80 dd 9b 39 58 08 93 be 8e 3e 1f bf 87 7b a1 be
       0.00029728934 -0.28717303 -0.62204826 -0.31539556
000010 40 a7 4f 3e a9 8f e5 be 26 32 1c bf 8b 3e be bd
       0.20278645 -0.44836167 -0.6101402 -0.09289273
000020 51 cd 55 3f 9d 54 1d 3f c0 2a 49 3d 72 4f 9a 3e
       0.8351641 0.61457235 0.049113035 0.30138737
000030 53 b6 15 3f 91 a4 5b 3f 33 66 8f be 9c 11 aa bd
       0.5848133 0.85797983 -0.2800766 -0.0830414
000040 5a d7 88 3e ac a3 1f 3e 3c e8 a4 bd 01 b3 54 bf
       0.267268 0.1558978 -0.08052108 -0.8308564
000050 b0 a4 d2 3d e0 1a 74 3e 9a 18 c3 bd 87 24 ac be
       0.10285318 0.23838377 -0.09526177 -0.33621618
000060 81 c3 2c 3b 18 70 da be da 17 8f be e1 77 80 be
       0.0026361647 -0.42663646 -0.27947885 -0.2509146
000070 6c d0 12 3e 38 38 b2 3e 93 2c 10 bf 1a 8b 9d bd
       0.14337319 0.34808517 -0.56318015 -0.07692547
000080 c7 34 65 3e aa 3e 82 3e e4 8f 47 3d d1 66 81 bd
       0.22383414 0.25438434 0.04872121 -0.06318439
000090 d2 60 9f 3d 78 d7 1e 3e 22 bb 4a 3e 4c 12 6b 3e
       0.07782139 0.15511882 0.19797948 0.22956198
0000a0 14 24 85 3e 12 6d 42 be a6 95 cd 3b 53 2d 7b bb
       0.26004088 -0.1898692 0.006273943 -0.0038326576
0000b0 27 a6 20 3f 66 68 15 bf 0c 4b d6 be f8 b0 6f be
       0.6275353 -0.58362424 -0.4185413 -0.23407352
0000c0 b5 4d 95 3d 42 df f7 3e 9b 83 bb be 15 76 b2 bd
       0.07290212 0.4841252 -0.36623845 -0.087139286
0000d0 9f 49 cd 3d 9b f9 85 3d 02 5a fb 3e 92 1b f5 3e
       0.10023808 0.06541749 0.49092108 0.47872597
0000e0 a4 8f 1c 3f ff d1 87 3e ad cd 0d 3f d5 9e 93 3e
       0.6115668 0.26527402 0.5539196 0.28832117
0000f0 d5 f5 bb 3e cc 9c 61 3e d3 07 2c 3e 63 ec e3 3c
       0.36710992 0.2203247 0.1679986 0.027822679
000100 58 fd 2d bf 5c e7 1e bf a7 bf 1d bf 8f d1 4d be
       -0.67964697 -0.62071776 -0.61620563 -0.20099472
000110 ec 91 18 bf 39 60 22 bf f6 71 03 bf 94 bc 8e be
       -0.5959766 -0.63428074 -0.51345766 -0.2787825
000120 f2 9a 41 bf 87 88 d8 be f0 1c 2b 3e aa c6 ac 3e
       -0.7562705 -0.42291662 0.16710258 0.3374532
000130 dc 93 96 3e d9 98 96 be e5 cf a4 3d b3 af 93 be
       0.29409683 -0.29413489 0.08047465 -0.28844985
000140 0b 33 a7 3e c1 f0 65 be 65 8c c9 be 4c 64 d3 be
       0.3265613 -0.22455122 -0.39364925 -0.41287458
000150 4d ef 67 3e 6f 0c 4c be 5d b0 58 be 01 bc e7 be
       0.2264988 -0.19926618 -0.21161027 -0.45260623
000160 79 af a9 3d 40 ad a7 3e e7 51 e4 be 79 a2 ba be
       0.08285422 0.32749367 -0.44593737 -0.36452082
000170 51 89 96 bd 8c b8 9a 3e 62 40 2e 3f 98 75 c8 be
       -0.0735041 0.30218923 0.6806699 -0.39152217
000180 d6 ef db be 32 71 d7 be 36 74 53 bc 6c fc ab 3e
       -0.42956418 -0.4207855 -0.012906125 0.3359102
000190 f4 82 89 bd d0 1c 18 3f bd 22 25 3d b1 4f 97 3d
       -0.067144305 0.59418964 0.040316332 0.07388247
0001a0 47 72 d5 be 01 c7 b5 3e ab 20 96 3e e0 bd 02 bd
       -0.4168875 0.3550339 0.293218 -0.03191936
0001b0 1c 8f 91 be 13 74 8b bc a9 a1 3f 3f 1d 4c 84 3e
       -0.28429496 -0.017023122 0.7485605 0.2583932
0001c0 0e 71 9b be 69 df 95 be f7 2b da be a7 69 b4 3e
       -0.3035969 -0.2927201 -0.42611668 0.35236856
0001d0 e8 00 26 3e db a2 ba be 6b 34 e9 be 37 23 35 be
       0.16211283 -0.36452374 -0.45547804 -0.17689215
0001e0 c4 45 82 bc 86 16 49 3e f9 37 e7 3c 4f 1c e2 be
       -0.015902407 0.19637498 0.028224932 -0.44162223
0001f0 2f 63 5a be c4 38 64 bb 64 4e 84 3e 8e 88 81 3d
       -0.21326898 -0.0034823874 0.25841057 0.06324874
000200 d8 69 3d be 3b 9d 3e bf 4f 78 d9 3c 6b 39 f9 bd
       -0.18497407 -0.74458665 0.026546625 -0.12169155
000210 2c d7 08 3e b1 f3 9c 3e bb 54 67 bf 18 99 77 bd
       0.13363332 0.30654672 -0.90363663 -0.060448736
000220 7d f7 db bd 54 c5 ae 3e 28 be bd 3f a3 99 32 3d
       -0.10740564 0.34134924 1.4823656 0.04360355
000230 8c c7 14 3e 98 fe 63 3d 43 7e 94 be 50 d9 e3 3e
       0.14529246 0.05566272 -0.2900258 0.44501734
000240 50 2a a4 bd a4 96 89 be cc 23 d6 bd 4f b7 ed be
       -0.08015883 -0.26872742 -0.104560465 -0.46428916
000250 6a 27 57 3e f3 0e 70 3e 76 e4 11 be d5 76 e3 3d
       0.21011129 0.23443203 -0.14247307 0.1110665
000260 0b 7f 27 be ca b5 af be 22 2a b2 be 08 1d 98 bd
       -0.16357057 -0.34318382 -0.3479777 -0.07427412
000270 d2 d7 6a be 55 82 9a be b0 4f d9 be 10 ca 59 3c
       -0.22933891 -0.3017756 -0.4244361 0.013292804
000280 ec 9a 3a 3e 3e 64 20 3f ba f5 60 3f 04 a1 3f 3f
       0.1822316 0.6265296 0.8787495 0.74855065
000290 79 da 87 3e 6b 1d 05 3e f5 95 c0 be 1a 82 d3 be
       0.2653387 0.12999503 -0.37614408 -0.41310197
0002a0 9d 4c be 3d 6e a3 f3 3e 84 65 e9 bd 73 a2 5d be
       0.092919566 0.47585624 -0.11396316 -0.21644
0002b0 ea 49 fa be 6a 25 12 bf 7e 29 ab be 82 d9 0d 3e
       -0.48884517 -0.5708834 -0.33430094 0.13852504
0002c0 40 88 45 be b4 3d a7 3d 17 fb 40 3e f8 02 53 bd
       -0.19290257 0.08166066 0.18845783 -0.051516503
0002d0 9a 21 d2 bd 62 7b 50 3e 35 5f 18 3f f0 da 4b 3d
       -0.10260315 0.20359567 0.59520274 0.049769342
0002e0 24 b7 9b ba 24 c0 2e be 75 95 ea bd 9f c5 8c 3e
       -0.0011880142 -0.17065483 -0.11454288 0.27494523
0002f0 2d 0a 51 3f 7c 78 2f 3f ec e0 b1 be ce 0d f6 be
       0.8165615 0.6854322 -0.34741914 -0.48057407
000300 ca b6 54 be d3 08 ff 3d e5 88 42 3e b5 83 b2 be
       -0.20772853 0.12452855 0.18997534 -0.3486611
000310 28 d4 f4 be b6 0a 4f bf aa 3c 82 bf 21 36 17 be
       -0.47818112 -0.8087572 -1.0174763 -0.14766742
000320 ca 3f f5 bd 52 81 ad be c6 ea 06 bf 5d 73 f8 3c
       -0.119750574 -0.33887726 -0.52701986 0.030328447
000330 7c 0a 1d 3f 7b 0c b6 3e 0c ad 49 bd 72 c7 4f bf
       0.6134412 0.35556397 -0.049237296 -0.81163704
000340 c8 74 28 bf 11 68 ba be 28 ac 11 3f 37 2a cf 3e
       -0.65803194 -0.3640752 0.56903315 0.40461895
000350 d4 22 8c bd d3 63 66 be d8 98 eb be 87 9d d9 bd
       -0.068425804 -0.22499017 -0.46015048 -0.10625749
000360 31 01 be 3e 43 6e cf 3e 09 8c 7f 3e 76 7e ee ba
       0.37110284 0.4051381 0.24955763 -0.0018195647
000370 85 27 51 3e 09 c5 d2 bd 9f 57 a5 bd 64 1d df 3e
       0.20425232 -0.10291488 -0.08073353 0.4357711
000380 c5 bd 19 3f 7c 5b 49 bf 59 30 78 be ce b8 5a 3e
       0.6005519 -0.7865522 -0.24237193 0.2135956
000390 01 fc 47 3e 8b 21 29 be 0f 86 68 bf 02 df 0b 3f
       0.19529726 -0.16516702 -0.9082956 0.5463716
0003a0 1e 89 b5 3e 3e 75 1b be d7 2a e5 be 1b 5b d9 bd
       0.35456175 -0.15181443 -0.44759247 -0.1061308
0003b0 cb 90 01 3f 29 36 b5 be b5 83 05 bf 1c 38 cf be
       0.5061156 -0.35392883 -0.52154094 -0.40472496
0003c0 03 f5 1f 3f d6 02 0e 3f a5 f7 3b 3b 70 76 a4 bd
       0.62483233 0.5547308 0.0028681543 -0.08030403
0003d0 64 ed 63 3d aa 1e d5 bc 6e 7f 21 be a6 4b cc bd
       0.055646315 -0.026015598 -0.15771267 -0.09975366
0003e0 7d ef 96 bd 13 6c e6 3c
       -0.073698975 0.028127706

conv1.bias f4 [10]
000000 99 ab c9 be 02 34 d2 be 46 27 78 3d 8c c3 bd bd
       -0.3938873 -0.41055304 0.06058433 -0.09265813
000010 65 36 fb be f3 cf 70 be 10 bc 30 be ce 1e 87 be
       -0.49064937 -0.23516826 -0.1725924 -0.2639069
000020 76 e7 9f be bf 23 36 bd
       -0.31231278 -0.044467684

conv2.weight f4 [20, 10, 5, 5]
000000 80 a4 bb 3e d2 d4 19 be 6a 87 42 be ba 8a c6 3d
       0.3664894 -0.15022591 -0.18996969 0.09694429
000010 d0 92 a3 bd 6d ff a7 3d f7 52 5a bd 30 69 93 3e
       -0.07986987 0.082030155 -0.053301778 0.2879119
000020 08 cc 50 3d 15 a8 9d 3e 52 23 1c bb f5 bf 30 be
       0.05097583 0.307923 -0.0023824763 -0.17260726
000030 74 16 c1 3c fd b7 7e bd 4e bf 1b bd 5a 48 83 bd
       0.023570277 -0.062187184 -0.03802424 -0.06410284
000040 54 b1 a4 bd c9 48 01 be 79 51 5c be 89 dd b3 bd
       -0.08041635 -0.12625422 -0.21515454 -0.08782489
000050 e8 f0 29 bd 3e 0f 8d 3d a5 d9 a6 bd 34 de 55 be
       -0.04148951 0.06887673 -0.08146981 -0.20885545
000060 97 56 1a be 10 2c 02 3d e0 7e 17 be 79 47 b9 3d
       -0.15072094 0.031780303 -0.14794493 0.090468355
000070 b0 b8 5e 3e 1f f6 46 be 17 f2 11 bd 3a 05 ee bd
       0.2175014 -0.19429825 -0.035631265 -0.11622091
000080 6f 2d 95 3d d0 4b c6 3d 28 2a ae bd b1 8a 65 be
       0.072840564 0.09682429 -0.085041344 -0.22416188
000090 57 3b 83 3d ca 5e 38 3e 66 bb 94 3d 7a b2 d6 3c
       0.064078026 0.18004909 0.07262306 0.026208151
0000a0 29 5f 94 bd ff 9c 61 3c 79 14 13 3e c7 f0 86 bd
       -0.07244713 0.013770341 0.14363278 -0.065888934
0000b0 0d 6e a5 bd db d1 7e bc 00 af 46 3e e9 b8 1c 3d
       -0.08077631 -0.015552963 0.19402695 0.03826228
0000c0 46 c2 e4 bc 73 66 64 bd 82 a1 f0 bb 6f c4 83 be
       -0.027924668 -0.055761766 -0.007343472 -0.25735804
0000d0 12 ab 49 be 8f b6 df bd f8 7c 46 be 07 18 e3 3d
       -0.19694164 -0.10923492 -0.1938361 0.11088567
0000e0 f5 39 cc bd 28 c6 0b 3e 23 ae d8 bd 52 c0 fe bd
       -0.09971992 0.1364981 -0.10580089 -0.12439026
0000f0 96 ca fb bc 0e b3 28 be 73 08 27 3e d2 c4 c4 3d
       -0.030736249 -0.16474554 0.16311817 0.09607853
000100 7e 14 9c 3e de db 8f bd c6 0d 7b be 76 9b 5c be
       0.30484384 -0.07024358 -0.24516973 -0.21543679
000110 64 4d 32 be 75 13 45 be 69 d5 0c be b2 ea 83 bd
       -0.17412335 -0.19245704 -0.13753285 -0.06441249
000120 de 1c 11 be d7 3e 59 be 16 28 4e be d3 ec d9 bd
       -0.14171168 -0.21215378 -0.20132479 -0.10640874
000130 6e 48 12 be 26 3e 3d 3e d1 d9 89 bc 5a 14 e3 bd
       -0.14285442 0.18480739 -0.016827496 -0.11087866
000140 00 5c e4 bc 51 8f 47 bb 3e cf 7e 3d 52 0f 5e bd
       -0.0278759 -0.0030450413 0.06220936 -0.05421383
000150 02 86 ca bd 4e 06 7f bd 1b 01 6d 3b 90 a0 72 3d
       -0.09888841 -0.062261872 0.003616399 0.059235156
000160 85 3d d9 bd 04 f5 65 bd c8 5e 4d 3d 1c b2 d9 3d
       -0.10607437 -0.05614187 0.05013922 0.10629675
000170 2b 97 35 3d 17 10 99 3d ac 54 fe bd ac 14 ec 3d
       0.044333618 0.07473772 -0.12418494 0.1152738
000180 7f d2 90 3d de 63 ac bd c3 7a b8 bb 88 f5 81 bd
       0.07071399 -0.08417486 -0.0056298687 -0.063456595
000190 fd 3c 80 bd 3c 0f dc 3d 36 50 19 be d9 22 89 3c
       -0.062616326 0.10745093 -0.14972004 0.01674025
0001a0 83 e8 08 3e 1f 66 34 be 37 2d e8 bd 8e d8 8a bd
       0.13369946 -0.17617081 -0.11336749 -0.06779586
0001b0 f0 50 02 be 99 0d 0e bd f2 fb 74 3d e5 ed 71 bc
       -0.12726188 -0.034680936 0.059810586 -0.014766191
0001c0 00 fb ae bd f4 17 5e be e3 89 92 bd 65 38 b9 bc
       -0.08543968 -0.21688825 -0.07155206 -0.022609899
0001d0 1e dd 03 3e 74 d8 ca bd 75 d7 07 3e 40 d1 b7 3d
       0.12877318 -0.099045664 0.13265784 0.08975458
0001e0 b6 f4 85 3d ea 43 93 3c a4 19 02 be ef f3 99 3d
       0.065408155 0.01797672 -0.12705094 0.0751723
0001f0 03 d7 87 3d a6 87 f6 bd d2 06 88 bd d5 b7 0e be
       0.06632807 -0.12037592 -0.06641926 -0.13937314
000200 93 4c 94 3d 3b 5b 0e 3e d7 eb 14 3e 73 39 73 3e
       0.07241168 0.13901989 0.14543091 0.23752384
000210 9b d2 d3 3d 87 87 61 3e e8 05 90 3d 8e 07 b5 bb
       0.10342904 0.22024356 0.070323765 -0.005524582
000220 f9 b2 f1 3b 16 df b6 bd 50 b3 77 3e d8 16 2e 3e
       0.0073760715 -0.08929269 0.24189496 0.17000902
000230 e7 f7 21 be 61 ef db 3a 74 04 6c be a7 0c 17 be
       -0.15817223 0.0016779714 -0.23048574 -0.1475092
000240 e3 8c c0 bd 80 d2 32 be 5d 71 3b 3d 32 3f 9b bd
       -0.09401872 -0.17463112 0.04576241 -0.07580413
000250 27 58 f9 bc 2c 64 93 bd 2d 07 fa 3c 15 2d 80 bd
       -0.030437542 -0.07196841 0.030521 -0.06258599
000260 eb bb 97 bd 57 a0 9d bd f8 fa 52 3d fd b9 5c 3d
       -0.074088894 -0.07696598 0.051508874 0.05388831
000270 87 29 07 3e 16 4a 99 3e 1c 42 d3 3d 14 16 80 bd
       0.13199435 0.29939336 0.10315344 -0.06254211
000280 74 ed 26 bd b5 4e 9d bd bb 51 33 bd c4 c4 22 3e
       -0.040753797 -0.07681028 -0.043779116 0.15895373
000290 82 3b 81 3e 63 9a 8a 3d 88 51 77 bc 23 b7 36 bd
       0.25240713 0.06767728 -0.015095122 -0.044608247
0002a0 0b f0 0d bb e5 50 10 ba c1 50 aa bc 55 1f 85 bd
       -0.002165797 -0.0005505218 -0.02079046 -0.06500117
0002b0 61 40 27 3b 95 c2 75 bd 98 36 05 bb 5e 6f d9 bd
       0.002552055 -0.06000002 -0.002032673 -0.10616945
0002c0 bb 14 f2 bd 76 0e be bd 04 59 96 bd 28 4e 9f bd
       -0.1182036 -0.09280102 -0.07341197 -0.07778579
0002d0 15 9e 9f 3d 37 77 6b 3c bf 93 5f bc 4c 60 df bd
       0.07793824 0.014371685 -0.013646065 -0.10907039
0002e0 3f 96 97 3b 36 5b c6 3d 41 91 82 bd d1 e9 8f 3d
       0.004626065 0.09685366 -0.06375361 0.07027019
0002f0 c5 48 dd 3d cf 35 9a 3e 53 16 85 3c dc 1c 60 3c
       0.10804895 0.30119178 0.016245997 0.013678756
000300 d8 d1 20 be 4f 4a 47 be e2 f3 94 3d c2 eb b6 bd
       -0.15705049 -0.1946194 0.072730795 -0.08931686
000310 3a 7b 65 3d d9 85 5c 3d 7b fc 0c 3c d0 88 b8 bd
       0.05602572 0.053838585 0.008605118 -0.0901047
000320 40 b0 35 bd 12 d4 91 3d 65 e9 9b 3d 92 57 02 be
       -0.04435754 0.07120527 0.07612876 -0.12728718
000330 7a 9a 8b 3d 11 a4 d2 3c 0e 83 25 3e ab e4 36 3e
       0.068165734 0.025712999 0.16163275 0.17860667
000340 10 5d 4a 3e be 58 57 3d c7 ee 11 be 41 e5 06 3d
       0.19762063 0.052574866 -0.14251243 0.032933477
000350 b9 e8 14 be 40 a7 06 be 31 ee 87 3d 42 c7 cd bd
       -0.14541902 -0.13149738 0.06637228 -0.10047771
000360 f1 90 91 3c 57 74 27 be c2 3b 25 be 08 0c 6b bd
       0.017769309 -0.16352974 -0.16136077 -0.05738452
000370 25 87 35 bd 67 77 b8 bd 22 b7 bf bd 33 4e 89 bd
       -0.044318337 -0.09007149 -0.09361102 -0.067043684
000380 dc 69 f8 bd 44 2e 8d 3e f5 9b 5f 3e ed 2d 0c bd
       -0.12129566 0.2757436 0.21836837 -0.034223486
000390 13 84 1a 3e 6e c5 e1 bd 8a 83 bc 3c ff 50 e1 bc
       0.15089445 -0.11023985 0.023011941 -0.027504442
0003a0 9d 9f 1e 3d c5 46 dc 3c 14 20 07 be f3 d0 58 bd
       0.038726438 0.026889214 -0.1319583 -0.052933645
0003b0 a4 27 6b bd 53 b9 60 3c 7c af 33 bb ab e8 c5 bd
       -0.05741085 0.01371606 -0.002741783 -0.096635185
0003c0 62 6a b1 3d 08 e2 aa 3d c0 a3 1e bd 01 ab f4 bd
       0.08662869 0.08343893 -0.038730383 -0.11946679
0003d0 db f5 61 be 04 45 af 3d e2 b1 8b 3c c8 56 36 bd
       -0.22066443 0.085580856 0.017052595 -0.044516355
0003e0 7e 8e 4b bd 27 49 02 be a5 ab fb 3c ff 8f 7a be
       -0.049696438 -0.12723218 0.030721495 -0.24468993
0003f0 1c 62 29 be 52 9f b6 be 31 3e 1a bd 72 66 9d 3d
       -0.16541332 -0.35668427 -0.037656967 0.076855555

conv2.bias f4 [20]
000000 ce 3b 5b be ae fb 4e bd 43 19 1d be 3c f1 57 bd
       -0.21409532 -0.05053299 -0.15341668 -0.052720293
000010 52 40 8c be a5 51 94 bd d0 5d e2 bd 6c 9a 6f be
       -0.27392823 -0.07242135 -0.110530496 -0.23398751
000020 7b e7 b9 bd 5e b4 6b 3c 03 ae ab be f6 aa be 3e
       -0.090773545 0.014386265 -0.33531198 0.37239808
000030 39 18 7e bd 66 00 ad be 75 46 16 be 6d 8c 01 be
       -0.06203482 -0.33789366 -0.14675315 -0.12651224
000040 69 50 85 be 92 26 75 bd ad 10 9b be 04 fc 5b bd
       -0.2603791 -0.059851237 -0.3028616 -0.053707138

linear1.weight f4 [128, 320]
000000 d2 3e cb bd 09 d4 4b 3c 6f 2b fa bc e7 a3 b5 bd
       -0.099240914 0.01244069 -0.030538289 -0.088691525
000010 fd 2c 08 bd c5 a1 59 3d dc ed 20 3d 99 07 94 bd
       -0.03324603 0.05313279 0.03928934 -0.07228012
000020 48 23 03 3d e4 a8 4a bd da 5f c2 3d ce 58 e6 3d
       0.03201607 -0.049477473 0.094909385 0.11247407
000030 26 e4 6e 3d 19 bf 8b 3c d7 ee 9c bb 03 27 2a 3d
       0.058323048 0.017058896 -0.004789214 0.04154111
000040 cc 5d ae 3d 82 71 65 bc 48 b7 24 3e 52 af ec 3d
       0.08513984 -0.014004113 0.16085541 0.11556877
000050 99 f3 a9 bc b7 da a5 3d e9 0c af 3d cc 42 02 bd
       -0.02074604 0.08098357 0.08547384 -0.031801984
000060 6f 70 92 bc b0 d9 96 bd 95 97 3e bd 64 02 fe bd
       -0.017875878 -0.07365739 -0.04653128 -0.124028
000070 55 4b a7 3c ea ea cd ba 01 b1 cc bd ee 66 02 be
       0.020421663 -0.0015710269 -0.09994698 -0.12734577
000080 20 05 05 3d d3 1e fb bb d2 b5 1a bd aa 9a c9 bd
       0.03247559 -0.0076635866 -0.037771054 -0.09843953
000090 5b bf 89 bd 4b 55 90 bd 45 78 3e bc fc 67 45 bd
       -0.06725951 -0.07047518 -0.011625354 -0.04819487
0000a0 39 d2 05 bd 42 0f 1e be dd 33 80 bd 00 d8 9c 3d
       -0.032671187 -0.15435508 -0.06259892 0.07658386
0000b0 4a 03 8d bd 41 b0 f8 3c 58 49 3b 3d b5 c9 00 3e
       -0.06885393 0.030357482 0.045724243 0.12576945
0000c0 f9 d4 67 3d 0f 2d a4 3c 8f 36 9b 3c 59 fc 9a 3d
       0.05659959 0.020041017 0.018946914 0.07567663
0000d0 3e 52 07 bc 6d 2c 08 be 11 0a 08 3d 50 f9 f8 bc
       -0.008259354 -0.13298197 0.033212725 -0.030392319
0000e0 70 d6 de bd 0b 43 19 bb cd f8 70 3c 17 fc 76 bd
       -0.108807445 -0.0023385908 0.014707756 -0.060299005
0000f0 3a cb ed bd 61 4f b2 bd 9f fe df bc d9 da 08 3d
       -0.11611028 -0.087065466 -0.027343092 0.033411834
000100 63 06 6b 3b 8c ae 0c 3d bb 84 2c 3d 69 19 ca 3d
       0.003586196 0.03434615 0.04211877 0.09868128
000110 46 dc 89 3c c7 d1 d3 3d 99 68 de 3c a2 35 f3 3c
       0.016828667 0.10342746 0.027149485 0.02968866
000120 3d 49 ea 3c 9b 09 3a 3d 5c a1 ef bd b4 bd 96 bc
       0.028599376 0.045419317 -0.11700699 -0.018401004
000130 25 8e 40 3c 99 23 cb bd 57 7f a4 bd 98 2f 5a bc
       0.01175264 -0.09918899 -0.08032101 -0.013317011
000140 0a 06 b1 bc 49 f7 6a 3d 6b c5 fa 3d 30 73 a4 3d
       -0.021609325 0.057364736 0.12244686 0.08029783
000150 61 dd 91 3d c7 3d 42 3d b7 ba d3 bc 6d 9c 53 3d
       0.07122303 0.047422197 -0.025845869 0.05166285
000160 24 7f 70 bc de e6 92 bd 1b 46 c4 bd 04 ff 63 3d
       -0.01467875 -0.07172941 -0.09583684 0.055663124
000170 83 ab 3a bd 44 1b e8 bb 11 22 aa bb 73 bf b2 bc
       -0.045573723 -0.0070833284 -0.0051920493 -0.021819806
000180 cb 1b 45 bb 6b 5c d3 3c 14 98 17 bb d0 95 57 bd
       -0.003007638 0.025800904 -0.0023131417 -0.052633107
000190 80 a0 bf 3d 67 5c 5a bd ed 74 b1 bd 6a 40 03 3d
       0.09356785 -0.053310778 -0.0866488 0.032043852
0001a0 be 74 f1 3c d5 60 18 3d 56 bf 0b 3c ee 92 8b bd
       0.029474612 0.03720172 0.008529505 -0.06815134
0001b0 5a ed 75 bc bc c2 99 bd 3e 8e 8c bc 26 cb 96 3d
       -0.015010202 -0.07507846 -0.01715767 0.07362966
0001c0 cb aa 50 3d da 5b e0 3c 1a 9e f0 3c 5b aa 54 bc
       0.05094413 0.027387548 0.029372264 -0.012980069
0001d0 b3 a1 64 bc c5 18 87 3d c3 8b 0e 3d da 7d c5 3d
       -0.013954568 0.06596521 0.034801256 0.09643145
0001e0 61 da c0 bd bf 31 81 3d 53 33 70 bd ec df 78 3c
       -0.094166525 0.063083164 -0.058642697 0.015190106
0001f0 22 95 56 3d 09 98 71 bd db c9 e4 bd 1e ff 4a bd
       0.052388318 -0.058982883 -0.111713134 -0.049559705
000200 b6 86 6b bd 43 59 0e be 68 1c 72 bd 4d 46 35 bc
       -0.057501517 -0.13901238 -0.05910912 -0.011064124
000210 da 65 31 3d c5 28 be 3d 45 0e aa 3d 28 d5 21 3e
       0.043310024 0.0928512 0.08303503 0.15803969
000220 10 7c 7f 3d 66 a4 a4 3d 9a 66 22 3d 7a de 3c 3e
       0.062374175 0.08039169 0.03964863 0.18444243
000230 51 49 69 3d f5 3b e7 3b ec c4 4b 3d 28 0d ed 3d
       0.056954686 0.007056708 0.049748346 0.11574775
000240 fe c7 5d bc 3c 61 04 3d e4 e1 8f bc fa 8a 03 3e
       -0.013536451 0.032319292 -0.017563768 0.12845984
000250 5c 03 dc 3d 40 e8 76 bc 4d 39 2e bc 7a 59 96 3d
       0.10742828 -0.015070021 -0.010633779 0.07341285
000260 1b 54 aa bb 35 35 2b bd 93 9b 6f 3d d5 04 04 3d
       -0.0051980144 -0.04179879 0.058497977 0.03223117
000270 9d c4 62 3d 2b a3 be 3c 68 f5 57 3d 41 91 1f be
       0.055363286 0.023271164 0.052724272 -0.15582754
000280 72 a0 cc 3c f0 39 61 bd 05 de 11 bb 5a 38 4e 3c
       0.02497885 -0.054986894 -0.0022257578 0.012586677
000290 28 72 00 bd b2 96 de bc 45 92 8a 3d e7 04 8b 3d
       -0.031358868 -0.027171466 0.0676618 0.067880444
0002a0 24 96 1d 3c ac 82 1a bc db d9 2f bd 1b 33 6d bd
       0.009618316 -0.009430569 -0.042932373 -0.057910066
0002b0 8c 5e f3 bd cd 5b 4f bd 4c 36 89 bd 4f d6 bd bd
       -0.11883268 -0.050624657 -0.066998094 -0.09269392
0002c0 85 00 cd bd c0 79 53 3c c0 44 9b 3d ac be bc 3d
       -0.10009865 0.012907445 0.075814724 0.09216055
0002d0 07 5f 3f bc ac de 29 bc 4c 2b af 3c 1b 63 5a 3d
       -0.011680371 -0.0103680305 0.02138295 0.05331717
0002e0 d8 19 0a 3e 60 19 23 3c b2 3f 47 3d 8a c7 8a 3d
       0.13486421 0.00995478 0.04864473 0.0677634
0002f0 59 11 c1 3d 45 54 81 3d c3 e7 17 bd 6c c4 f8 bc
       0.09427137 0.06314901 -0.03708626 -0.030367099
000300 1a e8 27 3d 01 79 de bc 7d bf 01 bd fa ba b2 bd
       0.040992834 -0.027157309 -0.031676758 -0.08727069
000310 4c 3d ba bc 0b 8d 5c bc 85 a2 9e bd 61 d9 ee bd
       -0.022734307 -0.013461362 -0.07745842 -0.116625555
000320 a6 c4 9b bd 3d 37 bb 3c 3d 3e ad 3b 36 1b 5f 3c
       -0.07605867 0.022853488 0.0052869604 0.013617327
000330 4c 49 40 bd 96 c6 8a 3d 3e 54 0f 3c ec 18 98 3d
       -0.0469449 0.067761585 0.008748112 0.074266285
000340 e4 83 74 3d 89 23 e8 bd 09 7f ae 3d e4 5b 34 3b
       0.059696093 -0.11334903 0.08520324 0.0027520591
000350 47 cb 84 bd b5 0a b4 3c 54 4a 01 bd 2a 70 a5 3d
       -0.064840846 0.021977762 -0.031565025 0.08078034
000360 96 8a f5 3c 28 07 93 bc 80 06 bc bc 98 21 3f 3d
       0.02997331 -0.017947748 -0.022952318 0.046662897
000370 a5 50 ef bc dd e2 9a 3d 45 bf 10 3e 29 b4 92 3c
       -0.029213259 0.07562802 0.14135464 0.017908173
000380 f7 b1 37 bc 84 0e 51 3d 67 cd d4 3d 60 59 da 3a
       -0.011211864 0.051039234 0.1039074 0.0016658716
000390 e1 47 7d bd 76 40 fb bb e5 d8 b6 bd 54 d9 ca bc
       -0.061836127 -0.0076675965 -0.08928088 -0.024761833
0003a0 50 28 c8 bd 35 dc 06 3d d8 4b a7 bc 0e fb 88 bd
       -0.09773314 0.03292485 -0.020421907 -0.0668851
0003b0 40 9f 27 bc 78 ae c0 3d 5e de 8f bc 49 37 e4 3c
       -0.010230839 0.09408277 -0.017562088 0.027858393
0003c0 72 3b 83 3c 28 b8 cf bc ea 25 82 bc 54 c3 67 bd
       0.016019557 -0.025356367 -0.01588722 -0.056582764
0003d0 cd 1d e8 3c 2e 55 76 bd e3 2b a5 3d f4 16 50 3d
       0.028334523 -0.060139827 0.08065011 0.05080314
0003e0 cd 21 38 3d f5 a7 a1 bc 3f 8b 02 3d 8a 8c bc 3d
       0.04495411 -0.019733408 0.031871077 0.09206493
0003f0 26 ff a1 bb 42 8b 63 bd f8 fb 97 39 a6 2d 80 3c
       -0.004943746 -0.05555273 0.00028988696 0.015646767

linear1.bias f4 [128]
000000 a9 17 ac bb 60 41 f7 bc f6 42 c8 3b 42 6f 03 bd
       -0.005251844 -0.03018254 0.006111498 -0.032088526
000010 6b a3 57 3b 9a e9 a0 3d b0 54 22 bd 1f 3b 3c 3d
       0.0032903801 0.07857056 -0.039631546 0.04595482
000020 e7 ba 76 3d 02 79 f2 bb bd 19 39 bd c3 87 66 bd
       0.060236838 -0.007399679 -0.04519056 -0.056281816
000030 5e f4 31 bc e3 ca 1a 3b 0f fc 7c 3c 40 79 a9 3d
       -0.010861484 0.0023619465 0.015440955 0.0827508
000040 28 60 d8 bd 10 b6 c9 3b 0d d2 dc bd 26 80 b0 3c
       -0.10565215 0.0061557367 -0.107822515 0.021545481
000050 d2 89 7d 3d 82 01 b6 bc c2 9d 2b bc 4a 1b 59 3d
       0.061899014 -0.022217516 -0.010474624 0.05300454
000060 8d 6c d6 bc e1 35 4d 3d 7a 69 a4 bd db 48 ab ba
       -0.026174808 0.05010021 -0.080279306 -0.0013067977
000070 46 2c f1 bc 60 f6 84 3d 9c 7f 26 bc ee 24 a2 3d
       -0.029440057 0.06492305 -0.01016226 0.079172
000080 0e 58 23 3d 32 4b d3 3d 62 6c 39 3c 4f 9c 81 3d
       0.039878897 0.10317077 0.011317344 0.063286416
000090 50 d8 5b 39 86 a2 47 bd 69 dc 21 3b 47 0b a3 bc
       0.0002096605 -0.04873898 0.0024698025 -0.019902838
0000a0 ca 12 8e bc d5 50 ad bd 6a 2a cc 3d 66 95 66 3b
       -0.017342944 -0.08462683 0.09969027 0.0035184263
0000b0 57 8d 8b bc 5a 84 ab bc b3 8c c5 bd 55 b1 80 bd
       -0.01703517 -0.020937134 -0.09645977 -0.062838234
0000c0 f5 74 96 3d 83 d9 83 bc 42 d9 82 3c bc 40 b5 bd
       0.073465265 -0.016094929 0.015972737 -0.08850238
0000d0 76 c5 b2 bd fd ab 7f 3c 77 e7 d2 3d 2b 99 06 bd
       -0.08729069 0.01560497 0.10298055 -0.032860916
0000e0 65 e1 50 3c d0 7f 3f bc f9 ba 10 3d 52 ff a9 bc
       0.012749051 -0.011688188 0.03533456 -0.020751629
0000f0 27 29 96 bd c5 c3 9f 3c 10 15 50 bd 44 b3 70 3c
       -0.07332068 0.01950253 -0.050801337 0.014691178
000100 b8 78 20 bc f1 ac 22 bc 0d 67 82 3d 65 f1 83 bd
       -0.009794407 -0.009928928 0.063673116 -0.06442527
000110 73 ba b3 bc 21 35 56 bc 43 a3 2d bd 5c 74 3a b9
       -0.021939492 -0.01307419 -0.042392027 -0.0001778169
000120 59 6b 82 3d 35 3f 27 3d 8f 3a 97 bc 39 c4 43 3c
       0.06368131 0.040831763 -0.01846054 0.011948639
000130 e8 0b d8 bd 65 25 96 3d fe f2 c8 3c e4 ee 43 3c
       -0.10549146 0.07331351 0.02452993 0.011958811
000140 f0 cc 61 bd aa 99 04 bd d0 d5 95 bb 00 22 59 bd
       -0.055127084 -0.032373108 -0.0045726076 -0.05301094
000150 f5 2b cd 3d e8 9d fd 3c 4e b5 ab 3b b9 d1 6d bb
       0.1001815 0.030959085 0.005240119 -0.0036288335
000160 b0 fc af bc c6 fc 19 3c 4b 19 8c 3b 53 b1 02 3c
       -0.021482795 0.009398645 0.004275476 0.007976848
000170 1e af ad bd b8 c3 6a 3d 99 79 91 bc b2 a0 8e 3b
       -0.084806666 0.05731556 -0.017758178 0.0043526525
000180 94 fb a8 bc 85 d8 73 3d f3 ea ff bc 7f b6 be bb
       -0.020627774 0.05953266 -0.031239962 -0.005820095
000190 2a 77 38 bd 00 0a d7 3c 72 20 69 bd 0f 13 ba bd
       -0.04503552 0.026249886 -0.056915708 -0.090856664
0001a0 31 ff e4 bb fb b0 56 bd 68 7f 6e 3d b6 f3 85 3d
       -0.006988429 -0.052414875 0.058226973 0.06540625
0001b0 6f da bd 3b 2f 83 1e bd e3 6c 98 3d 61 ac 41 3d
       0.0057938616 -0.038699325 0.074426435 0.047283534
0001c0 07 2a e8 bd 95 b5 4d bd 4a 46 9f 3b 4c d5 06 3c
       -0.11336141 -0.050222 0.004860674 0.008229565
0001d0 7c ab 54 bd 0c db da bd 3d 19 f5 bd b6 29 04 bd
       -0.051921353 -0.10686311 -0.119677044 -0.03226634
0001e0 d3 67 3d bd 70 e9 82 3c b0 e0 15 3d e4 41 9b bd
       -0.046241593 0.015980452 0.03659123 -0.07580927
0001f0 2e 73 ca bc 89 10 60 3d 6d 3d 9e bc 35 67 44 bd
       -0.024713125 0.05470327 -0.0193164 -0.04794999

linear2.weight f4 [64, 128]
000000 f6 fb 09 be 66 35 ef bc fe a2 20 3d 6b 37 16 3c
       -0.13475022 -0.029200267 0.03921794 0.009168486
000010 a5 ba 14 3e 66 9f 10 3b 5b dd f7 bd 5b 3b 1a bd
       0.14524324 0.0022067665 -0.12102767 -0.037654262
000020 0a f6 85 bb 5c c9 13 be a8 62 bc bd b6 33 28 bd
       -0.004088168 -0.14432281 -0.09198505 -0.04106494
000030 45 bc 71 3d b2 8c b9 3d 23 66 65 bd c0 88 24 bd
       0.05901744 0.090600386 -0.05600561 -0.040169477
000040 0a 28 cc bd 90 81 4b bc 46 0a b9 3c d3 84 a8 bd
       -0.09968574 -0.012421027 0.022587907 -0.08228459
000050 e0 50 00 3e ad 16 cc 3b 00 e3 34 3d 36 dc d2 3d
       0.12530851 0.006228289 0.044161797 0.10295908
000060 4a 1d e5 bc 6d c0 be 3c 6d 14 12 bd a5 1a 1a be
       -0.027968068 0.023285115 -0.03566401 -0.15049227
000070 a9 b1 7f bc 9a 87 91 3c c6 d6 4f bd 91 63 d7 3d
       -0.015606322 0.017764855 -0.050741933 0.10517038
000080 04 bf d0 bb 8f ed 90 3d ec db 52 3d fd 10 e7 3a
       -0.006370427 0.07076561 0.051479265 0.0017628964
000090 d4 6a d6 3b fa 49 84 3d 29 cc 06 bd 47 af 21 3d
       0.0065434966 0.064594224 -0.032909546 0.039473798
0000a0 21 c1 7b bd b4 22 1c bd 23 87 a9 3b 92 93 23 bd
       -0.06146348 -0.038119033 0.0051735803 -0.039935656
0000b0 43 1e 3d 3d ee 3d 32 3d 52 05 9c 3d a6 92 66 3d
       0.046171438 0.043516092 0.07618202 0.0562922
0000c0 56 93 51 3d ee a8 7f bd 0e 92 cf 3d e7 f6 d3 bd
       0.0511659 -0.062416963 0.101352796 -0.10349827
0000d0 85 fe c3 bd 29 ed 07 be 73 b0 df 3d ce f6 7d 3c
       -0.0957003 -0.13274063 0.10922327 0.015500737
0000e0 d0 1b 06 bb cd 89 c5 ba fb 73 cb 3d fd 73 f2 3d
       -0.0020463355 -0.0015070975 0.09934231 0.11838529
0000f0 fa 7a b3 bd 5a 36 ef bd 70 ba 50 3d fe f1 d1 bd
       -0.0876369 -0.116802886 0.05095905 -0.102512345
000100 34 79 27 3c 2b 61 d4 bd 4f f4 0e 3d 98 81 61 3d
       0.010221768 -0.10370096 0.03490096 0.05505523
000110 5a 57 63 be ba 2b 8f 3c b2 b9 a6 bd ef dc 62 bd
       -0.2220129 0.017476905 -0.08140887 -0.05538648
000120 9b e2 b4 3d 3e 31 85 bd c9 ba 4a bd 46 ba 30 3c
       0.08832284 -0.06503533 -0.04949454 0.010786599
000130 87 6e 71 bd 9b fe 5a 3d 87 68 57 3d ec 8c 15 3c
       -0.058943298 0.053465467 0.05258992 0.009127837
000140 4f 22 89 3c 0c 80 f0 bd f0 29 74 3d 21 cf 5d 3d
       0.016739992 -0.11743173 0.059610307 0.05415261
000150 79 b6 e4 bd 04 db 7d 3d 7c f3 05 3c b4 b6 bb bd
       -0.111676164 0.061976448 0.008175727 -0.09165707
000160 fa 91 6c bd b1 1e cf 3c 6b a2 99 3d 36 5d 84 3d
       -0.0577564 0.02528319 0.07501682 0.06463091
000170 b6 d2 6a 3d 6d f0 d9 3c 73 8a c8 3d 74 e6 ce 3d
       0.057329856 0.026603902 0.09792032 0.10102549
000180 23 5d 9c 3d 1a 77 5f bc 18 6d 98 bc fb 3a c4 bd
       0.07634952 -0.013639236 -0.018606707 -0.09581562
000190 2c 95 fb bd 57 47 91 bd 69 72 02 bd 14 ae d3 bd
       -0.12284312 -0.07093685 -0.03184739 -0.10335937
0001a0 75 6c b8 3c f9 36 b4 bd a9 67 71 bd d2 0f f8 bd
       0.022512654 -0.08799548 -0.05893675 -0.121123925
0001b0 4f 7b e5 bd 31 00 12 bd b0 93 0e 3c 1d 01 e1 3d
       -0.1120516 -0.035644714 0.008702204 0.109865405
0001c0 00 f0 73 3d 92 d6 3b bc 4b 4e a8 bc 84 08 ba 3d
       0.059555054 -0.011464732 -0.020545145 0.090836555
0001d0 76 22 50 bd f3 b8 ab bd 0a 64 a6 bd 47 c0 01 ba
       -0.050814115 -0.08384886 -0.0812455 -0.0004949611
0001e0 e6 90 9a bc 9c c3 69 bd 5c 33 e7 3d e3 5c c2 3d
       -0.018867921 -0.057071313 0.11289093 0.09490373
0001f0 72 e0 92 bd 9c 2d 05 be 81 df 2d bd 1e 28 50 bd
       -0.07171716 -0.1300568 -0.042449478 -0.05081951
000200 c6 d7 34 3d 9d 23 c5 bd 87 2f a7 bc cc 33 21 3e
       0.04415109 -0.09625933 -0.020408405 0.15742415
000210 d8 41 bc bd e5 8f e5 bd fb 74 3a bd 46 fc 19 bd
       -0.09192246 -0.11209086 -0.045521718 -0.037594102
000220 b9 36 87 bd cc f8 f3 bc f3 9d 9a bd cf fe 81 3d
       -0.066022344 -0.029781722 -0.07549658 0.06347429
000230 76 0e e1 bb 14 11 34 3d 72 6b bf 3c 8f 41 88 bc
       -0.006868179 0.0439616 0.023366664 -0.016632823
000240 75 e3 42 3d 0b e1 52 be 86 15 23 be 17 aa 5a 3d
       0.0475802 -0.2059366 -0.1592618 0.053384867
000250 5d fa 46 bc b5 0c e1 bc cf 32 da 3d 3b 18 ef bd
       -0.012144652 -0.02747188 0.10654222 -0.116745435
000260 52 65 40 bc b4 a1 ad bd 65 85 3b 3d 18 14 63 3d
       -0.011742907 -0.08478108 0.04578151 0.055439085
000270 ea 8d 24 3e ab 1f 93 bd c3 55 3b bd b9 76 1e be
       0.16069761 -0.071837746 -0.045736086 -0.15474977
000280 a9 57 bf 3d 0b 71 00 bd 66 1d 22 bc db 18 3a 3e
       0.09342892 -0.031357806 -0.009894704 0.18173544
000290 bb 77 18 3e 7a ba b2 bc 23 19 3c 3d a4 f7 f1 bd
       0.14889424 -0.021817435 0.04592241 -0.11814812
0002a0 35 b2 d9 3c 54 bb c3 3d 89 b9 4e 3d 5c 07 b1 bc
       0.026574234 0.095572144 0.05046991 -0.021609955
0002b0 30 fe c9 bd 52 ce 58 bd b7 eb 00 3e d0 ab bf bd
       -0.098629355 -0.052931137 0.12589918 -0.093589425
0002c0 e1 ac 84 bd 8e 3f f4 3d b8 07 86 bd 4a da a9 bd
       -0.064782865 0.119261846 -0.06544441 -0.082935885
0002d0 9e 7b 6f bd 6f ce 05 3e 19 2d 05 be fa d9 58 3c
       -0.0584675 0.1306703 -0.13005485 0.013235563
0002e0 70 a1 17 bd 3d c8 e1 bb 61 2f 1d bd 8a d8 bd 3c
       -0.037019193 -0.0068903253 -0.038375262 0.023174543
0002f0 bf aa 99 bd 60 26 dd 3d 82 cf 90 3b 78 81 1b 3c
       -0.0750327 0.10798335 0.004419268 0.009491317
000300 10 1c 29 be 63 d4 6a 3d 86 97 eb 3d 99 29 8b bd
       -0.16514611 0.057331454 0.1150351 -0.067950435
000310 1f eb 37 3c 2c 9e ed 3d b4 34 86 bb 57 e1 1d 3e
       0.011225491 0.116024345 -0.004095638 0.15417992
000320 a2 d6 cd 3d fb fa 87 bd d3 0a 2c be 1b b2 35 3b
       0.100507036 -0.066396676 -0.16801004 0.0027724567
000330 bb b1 a9 bd da c3 46 bd ce ae be 3d fa 4e b0 bd
       -0.082858525 -0.048526622 0.09310685 -0.086088136
000340 79 98 21 bd 61 d9 7c bd 79 45 fe 3d 4d 87 ee 3d
       -0.03945205 -0.061730746 0.124155946 0.116469
000350 4c 7d 8e 3d 6d 9e 0d 3c 28 21 3b 3b ad cc 8e 3d
       0.06957492 0.008643729 0.0028553698 0.069726326
000360 24 a1 16 bd b6 19 54 bd aa b8 46 3d 92 25 b3 bd
       -0.03677477 -0.051782332 0.048515953 -0.087474
000370 ec b0 a7 bb d8 7a 01 be 79 1f ec 3d a1 de a8 bd
       -0.0051175263 -0.12644517 0.115294404 -0.08245588
000380 e2 52 e4 bd af d3 a0 bd 4a 59 6f 3d 9f 31 b2 3d
       -0.11148621 -0.078528754 0.058434762 0.08700871
000390 b9 97 96 bd a9 15 15 bd 81 0f 7a 3b 11 54 a8 ba
       -0.073531576 -0.03639761 0.0038156214 -0.0012842437
0003a0 78 28 88 bd fa d7 0c 3e da a7 38 bc f8 f1 89 3d
       -0.06648344 0.13754264 -0.011270488 0.06735605
0003b0 fb c1 90 3b 3b f7 87 3d 57 2a 3e 3d 6d f8 b3 3d
       0.0044176555 0.06638952 0.046427097 0.08787618
0003c0 cb a4 0b 3d 18 77 a3 bb f4 6d 4c 3e 66 5c d8 bd
       0.034092706 -0.0049885623 0.19963819 -0.105644986
0003d0 06 fd b7 bd 51 0f c2 bd e6 7d 0e 3d 3f 36 d8 bd
       -0.08983807 -0.094755776 0.034788035 -0.105572216
0003e0 64 c1 1d 3d fe 5d 5a 3c d3 3c 27 3d 9d e4 80 3d
       0.03851451 0.013328074 0.04082949 0.062936045
0003f0 52 41 e1 bd 7c 46 46 3d 26 79 40 3d 4b d8 88 3d
       -0.10998787 0.048407063 0.046990536 0.066818796

linear2.bias f4 [64]
000000 e1 b4 fb 3d 91 57 3a 3d c5 d3 ae 3d 1a 8d 85 bd
       0.12290359 0.045493666 0.085364856 -0.065210536
000010 e7 7d b3 bd 74 67 4a bd 88 2d 07 bd 7a f9 e0 3d
       -0.08764248 -0.049415067 -0.033002406 0.10985084
000020 7b 19 c5 3d 66 5b 0c be 26 ce 4d bd bd 41 25 bc
       0.09624001 -0.1370674 -0.050245427 -0.010086474
000030 44 69 3e 3d 7e 1e 2c 3c ff a9 d7 bc 71 6c 8e bd
       0.046487108 0.010505317 -0.026326178 -0.06954277
000040 19 32 24 3d ce 45 82 3d 84 00 0c 3e 12 7d 0c 3d
       0.04008684 0.063609704 0.13672072 0.034298964
000050 0a b2 16 bc 79 31 6a 3d a2 de f1 bd 4e 3c 49 bd
       -0.009197721 0.057176087 -0.11810042 -0.049129777
000060 2b 14 08 bd 8d d7 98 3d 36 f3 b6 bb 69 71 bf bd
       -0.03322236 0.07462988 -0.005583192 -0.09347803
000070 a5 1a aa bd ff 81 09 bd d7 b5 8c 3c 88 4a a1 bd
       -0.08305863 -0.03357124 0.017176552 -0.07875544
000080 2e db 09 bd 0e 52 a7 bd b8 11 38 bd 6d 0e 04 be
       -0.03365629 -0.081699476 -0.044938773 -0.12896128
000090 18 9f 90 3d af e2 1b 3d 02 0a 6a bd da b4 42 bc
       0.07061595 0.03805798 -0.05713845 -0.011883939
0000a0 3a ec c3 bd dc c3 25 bd 7d 77 ea bd 77 9d cc bd
       -0.09566541 -0.04046999 -0.11448572 -0.099909715
0000b0 f3 75 12 3e a9 f7 12 bd 50 46 4a bc b4 fe f8 bc
       0.14302807 -0.03588072 -0.012345865 -0.03039489
0000c0 dd 44 87 bb a2 08 97 3d 7b 26 53 bd 55 83 ae bc
       -0.004128082 0.073746935 -0.05155037 -0.021302858
0000d0 a6 90 6f bd ba 48 bb bd d6 ae 2a bd 37 3e 0c 3d
       -0.058487557 -0.09144731 -0.041670643 0.03423902
0000e0 8f 34 a8 3c 5e 8e b1 bc 58 e7 02 3d 96 85 00 3e
       0.020532874 -0.021674331 0.031958908 0.12550959
0000f0 e7 96 ab bc 85 73 8d 3d 15 fd 0c 3e 39 f5 f3 3d
       -0.02094598 0.06906799 0.13768418 0.11912007

linear3.weight f4 [10, 64]
000000 a4 7f 2d 3e f1 0d 8c be ce 8d 0a 3d df f6 66 be
       0.16943222 -0.27354386 0.03382664 -0.22555111
000010 de a9 28 be 9b 77 4a bd 95 5e 8e bc 89 5f cf be
       -0.16471049 -0.04943047 -0.017379085 -0.40502575
000020 29 96 ea bd 54 a9 28 be 77 1c 6b be 4a 64 be bd
       -0.11454422 -0.16470844 -0.22960077 -0.09296472
000030 32 0e 08 3e be 31 d6 3c 39 e2 85 be 42 27 a7 3e
       0.13286665 0.026146766 -0.26149157 0.3264714
000040 38 38 2e be 08 ce 3b 3e b3 d0 d0 3b 44 ab da be
       -0.17013633 0.18340313 0.006372535 -0.4270879
000050 63 ed 05 3e 8a c3 8f be 23 f9 b5 bc e5 8b aa 3e
       0.13078837 -0.28078872 -0.022213524 0.33309856
000060 24 d3 dc 3e 32 a0 e8 ba f1 cd 4c 3e 4d 39 f3 3d
       0.43129838 -0.0017747937 0.20000435 0.11876164
000070 4f a8 d3 3e e2 cb 6c bd ab 4d ca 3e d9 7a 06 3f
       0.41339347 -0.057811625 0.3951238 0.525312
000080 96 4c 24 bc 9f 81 c0 3e 6e de a3 3e 7f e5 e3 bd
       -0.010028025 0.37598893 0.32005638 -0.11127757
000090 f8 d9 5f 3e 68 8a 55 3e 96 65 31 3e 7d b4 e0 3d
       0.21860492 0.20853579 0.17323908 0.109719254
0000a0 65 79 90 3d e8 97 b7 be 26 bb 8a be c5 6b 82 3e
       0.07054404 -0.35858083 -0.27095908 0.25472847
0000b0 26 b3 03 3b ef 72 a9 bd aa a5 b1 bd 32 65 98 3e
       0.0020095794 -0.08273875 -0.08674176 0.29764706
0000c0 30 3d ae 3d fc 55 17 be 04 12 07 3e a5 77 a2 be
       0.08507764 -0.14778894 0.13190466 -0.31731907
0000d0 d1 d4 3a 3e 9f f0 3b 3e dd 34 82 be aa cc bb bd
       0.18245246 0.18353508 -0.25430956 -0.09169896
0000e0 16 84 e5 be 0a 08 b5 3c 77 15 a6 3d c7 ab 34 3e
       -0.44827336 0.02209856 0.08109563 0.17643653
0000f0 e6 4c c6 bd eb 9a ca bd bb 55 b8 be 50 d9 17 3e
       -0.09682636 -0.098928295 -0.36002907 0.14828992
000100 58 10 25 3e d2 e0 39 3c b7 1d 11 be 66 54 7b bd
       0.16119516 0.011345105 -0.14171492 -0.061359785
000110 a1 10 8b be 37 50 58 be 12 19 b3 3d 81 ae ec 3e
       -0.27161124 -0.2112435 0.08745016 0.46226886
000120 a2 55 41 3e 4c b2 99 be 52 05 29 3d 54 a7 0b be
       0.18880323 -0.30018842 0.04126484 -0.1363805
000130 c8 ff ec 3d 0c a4 82 3e d7 18 87 3b 11 9e b7 bd
       0.11572224 0.25515783 0.004122834 -0.08965696
000140 69 7b 51 3e fc 48 9b be 7b e3 9b 3d 88 b9 18 bd
       0.20457233 -0.3032912 0.07611748 -0.03728631
000150 51 95 a8 3c 35 ff 3a 3d 14 e3 80 be 1b 68 e3 bd
       0.020579012 0.04565354 -0.25173247 -0.11103841
000160 e8 c9 78 be 45 cf 52 be 19 d6 a9 3e 14 fa 85 3e
       -0.24295771 -0.2058688 0.33171156 0.26167357
000170 92 56 28 be a1 82 ad be 2b 60 32 be 36 55 4e 3e
       -0.16439274 -0.33888724 -0.17419498 0.20149693
000180 3e 1d b2 3c 1c a5 74 be 1a 72 80 be 62 41 55 be
       0.02174246 -0.23891109 -0.25087053 -0.20825723
000190 ca 0a 18 3d 6f 88 0e be f9 0d d0 3c c4 34 02 3e
       0.037119664 -0.13919233 0.025397288 0.12715441
0001a0 0d 66 85 3d db 57 88 3e 74 17 ba bd 8c 1c c1 be
       0.06513605 0.26629528 -0.090865046 -0.37717092
0001b0 64 f2 e5 3d a6 ea 34 bd eb 71 25 be 92 57 d2 3e
       0.11227873 -0.04416909 -0.16156738 0.41082436
0001c0 b5 eb c9 be ca 21 d5 3e 0a 99 e2 bb 42 23 77 be
       -0.39437643 0.41627342 -0.0069152163 -0.24134544
0001d0 de 22 15 3e db 56 95 be f5 65 cb 3c bc 0e 24 3e
       0.14564082 -0.29167828 0.02482889 0.16021246
0001e0 65 af ed bc 7f b3 18 3e 45 0d 72 bd 24 64 c7 3e
       -0.029014299 0.14912222 -0.059094686 0.3894359
0001f0 81 bf 1b 3d 5c 81 96 3e 20 b8 aa 3e 53 6e 59 3e
       0.03802443 0.29395568 0.333436 0.21233492
000200 3c 39 4b bd 94 81 b2 3e c7 e3 ba 3c e5 f0 9c 3e
       -0.04961513 0.34864485 0.02281369 0.30652538
000210 ff a1 7c 3c 4f f2 98 bb 2d d1 1e bd a5 3a 06 3e
       0.015419482 -0.0046675573 -0.038773704 0.13108309
000220 8e 4f 35 3d 52 95 35 be c5 30 12 be 77 3f bb be
       0.044265322 -0.17732742 -0.14276417 -0.36571857
000230 27 4d 16 be 74 d2 18 3e 5a 3d 80 3e 55 29 95 be
       -0.14677869 0.14924031 0.25046808 -0.29133096
000240 68 49 11 be 6c f5 9e bd 4e 0f 53 be 09 3d 18 be
       -0.14188159 -0.07761654 -0.20611307 -0.14867033
000250 6f b5 95 be f1 c5 9d 3d d9 b4 21 be ab 3a 95 3e
       -0.29239985 0.0770377 -0.15791644 0.29146323
000260 3b f4 a3 3e 5d 6f d2 be b6 88 8e 3e 20 3f a4 bd
       0.3202227 -0.41100588 0.27838677 -0.08019853
000270 e4 ca 68 3e 4a 43 8f bc 8d bf b2 be 0b d1 09 be
       0.22733647 -0.01748814 -0.34911767 -0.1345865
000280 4b 26 83 3d f2 3c e8 3d 5d ec 8d 3e 09 6d 98 3e
       0.06403788 0.113397494 0.27719393 0.29770687
000290 90 05 75 3e f7 1b 0e 3e f0 97 1f 3d 77 17 e1 3d
       0.23927903 0.13877855 0.03896326 0.10990804
0002a0 ea 5e 2d 3e de 38 52 3e 49 4c 66 3e e2 ac 16 3d
       0.16930738 0.20529506 0.22490038 0.036785968
0002b0 d5 e2 9c 3d 9c b3 96 3e 4c 3c 3a 3c 00 43 be bd
       0.07660452 0.29433906 0.011366915 -0.09290123
0002c0 0b a0 88 be cd c8 59 3e 06 c6 25 3e 7a ae ea 3d
       -0.26684603 0.21268006 0.16188821 0.1145906
0002d0 28 4f a4 3d 11 10 e3 bd 64 45 69 3e 9b 75 8a 3c
       0.0802291 -0.11087049 0.22780377 0.016901782
0002e0 66 ae 25 be 80 34 4c 3e 05 c1 23 3e 0a 9d 7f be
       -0.16179809 0.19941902 0.159916 -0.2496225
0002f0 6d a5 df 3e 74 3f 0a 3e 03 50 37 be bc d9 b8 bd
       0.43680897 0.13500768 -0.17901616 -0.090259045
000300 4a b9 7e bd 10 12 f7 3e 26 0b 3c bc 17 92 8d 3e
       -0.062188424 0.48255968 -0.011477267 0.2765052
000310 82 28 94 3d 26 5c 1c 3e 68 b1 63 be 07 af 85 3e
       0.07234289 0.15269527 -0.22235644 0.26110098
000320 a7 30 56 be 18 71 8f be b5 e5 16 bb 6f fb ca 3d
       -0.20916997 -0.2801597 -0.00230251 0.099112384
000330 5e 0e 95 3e cc 29 42 3d 6e 98 3a be 22 39 ca 3d
       0.29112524 0.04740314 -0.1822221 0.098741785
000340 40 eb 89 be cf 42 d6 bc e3 ea 4e 3e f0 1a 6f 3e
       -0.26937294 -0.026154904 0.2020679 0.2335012
000350 fd 82 b2 bc ee 57 1a 3e 8a a6 7c 3d 67 70 6f bd
       -0.021790976 0.15072605 0.06168226 -0.058456805
000360 6d d2 b5 3d ce 74 1b 3d 39 46 a0 bd e6 8c 49 3c
       0.08878026 0.03795319 -0.07825894 0.012301659
000370 8e 5c bc 3d 35 54 59 3e 5a a8 66 be 2c 53 9b be
       0.09197341 0.21223529 -0.22525159 -0.30336893
000380 9c df 91 bd 99 67 7d 3e 67 8e 94 bd 8f 13 4a 3e
       -0.07122728 0.2474655 -0.072537236 0.19734024
000390 b3 ae 5e 3e d7 99 52 bd 5a c2 a8 3d 25 dc a9 3e
       0.2174633 -0.051416244 0.082401946 0.3317577
0003a0 18 4f b7 3e f7 93 c3 3e 14 0b a1 be 96 19 f3 3d
       0.3580253 0.38198826 -0.31453764 0.118701145
0003b0 a2 12 44 be 83 a8 57 be 7a 94 9b 3d 1d 9e d1 be
       -0.19147733 -0.21060376 0.07596679 -0.40940943
0003c0 f1 67 a1 3e 8a a2 22 be bd 71 f9 be 79 06 69 3e
       0.31524613 -0.15882316 -0.48719588 0.22756375
0003d0 bb f4 91 be d5 a4 08 3d 54 2b e7 bd 9b b6 f2 3d
       -0.28507027 0.03336032 -0.11287561 0.118512355
0003e0 a7 d2 c3 3d 75 00 19 be 6d 04 2a 3e e8 52 e1 bc
       0.09561663 -0.1494158 0.16603251 -0.027505353
0003f0 9f 1b 03 be 5e 8f 2c bd 95 a6 5b 3e 6e b8 64 3d
       -0.12803505 -0.042128913 0.21450265 0.05583995

linear3.bias f4 [10]
000000 74 cc 08 be 5c 4a 93 3b 21 bd 13 be e9 e1 4d bc
       -0.13359243 0.0044949483 -0.14427616 -0.012566068
000010 13 77 24 be 56 9b 40 bd 17 e1 47 be 65 1d 6e bd
       -0.16061048 -0.04702314 -0.19519459 -0.0581335
000020 f4 03 ad 3e 33 3d 0b bd
       0.33792078 -0.03399391
