练习/unet_model.pth (torch, 751733 bytes, 11 tensors)

weight f4 [32, 1, 3, 3]
000000 c2 d7 75 3e 80 87 cc 3c 8b 34 a6 be 0b c5 9e 3e
       0.24008086 0.024966955 -0.32461962 0.31009707
000010 43 bb 0f be d1 bc 9a 3e 62 05 59 3e c2 8c 90 be
       -0.14036278 0.3022218 0.2119346 -0.2823239
000020 40 a0 9f bd 59 bb a9 3e a0 1c 71 3d 32 04 6a 3e
       -0.07794237 0.33150747 0.05886519 0.22853163
000030 af 78 94 3e 68 63 05 bd d6 3e 5c 3e da fc 04 3e
       0.28998324 -0.032565504 0.21508345 0.1298708
000040 20 7f 42 be 2c 8a ba 3d eb bc 78 be d8 5e 53 3d
       -0.18993807 0.091083854 -0.24290816 0.051604122
000050 56 a1 f4 bd 90 db 1e 3e 99 02 91 3e d9 49 88 3e
       -0.11944835 0.15513444 0.28322294 0.2661884
000060 22 03 0c 3e f3 23 24 be c0 a3 e5 bc 78 67 a5 be
       0.1367307 -0.16029339 -0.028032184 -0.32305503
000070 66 43 89 be 0a 24 41 3e d0 e9 7c be 80 47 2b bb
       -0.26809233 0.18861404 -0.24698567 -0.0026135147
000080 0b 5e 19 be b6 bd 65 3e 2e 5f 9e be b2 bd 38 3e
       -0.14977281 0.2243565 -0.3093199 0.18041113
000090 60 a9 08 3c dc 47 f8 bd d0 dc a6 3c 3e 5a 79 be
       0.008341163 -0.12123081 0.020368963 -0.24350831
0000a0 4a c4 26 3e f4 a3 bf 3d d8 9e aa be fc 94 9f be
       0.16285816 0.093574435 -0.33324313 -0.31168354
0000b0 60 ba 28 be d0 16 b4 bd d5 c3 94 3e dc 5b ed bd
       -0.16477346 -0.08793414 0.29055658 -0.115897864
0000c0 00 be 4c bc 9c 88 cb 3d e9 4d 91 3e f9 70 95 3e
       -0.012496471 0.099381655 0.28379753 0.29187754
0000d0 68 f5 22 3e 23 0f 20 be dc 1b 9e bd 5d b4 a3 3e
       0.15913928 -0.15630774 -0.077201575 0.31973544
0000e0 18 b3 43 bd d0 2c a5 bd cc 3f c6 3d d6 a7 20 3e
       -0.04777822 -0.08065188 0.09680137 0.15689024
0000f0 86 96 b6 bd 8b 6a 2f be b0 4e c9 bc 5c 48 b6 3d
       -0.08915429 -0.17130487 -0.024573654 0.0890052
000100 8a 45 58 3e 80 eb b9 bd 4c c6 bc 3d 12 38 6e 3e
       0.21120277 -0.09078121 0.092175096 0.23263577
000110 ae e2 9d be 16 3e 50 3e e0 30 72 be 8d f3 a2 3e
       -0.30837005 0.20336184 -0.23651457 0.3182644
000120 80 ce 4a be ab ed 7b be d6 9c 67 3e 75 d0 8b 3e
       -0.19805336 -0.24602382 0.22618422 0.27307478
000130 3c 0b 8f 3d e0 0e ba bd f3 37 69 be 5a cf 91 be
       0.06984565 -0.090848684 -0.22775249 -0.2847851
000140 e6 83 c1 bd d6 0e 77 be ab 07 8d be 0c ee a6 be
       -0.09448986 -0.24126753 -0.27544913 -0.3260349
000150 b8 ed 03 3d 40 a1 7b 3d 58 40 3d 3d 88 e5 34 bd
       0.03220913 0.061433077 0.04620394 -0.04416421
000160 5a 99 9e be a4 73 f2 3d c0 c7 f5 3b 80 14 bf bc
       -0.30976373 0.11838463 0.0075006187 -0.023325205
000170 cd c5 87 3e ea 82 07 3e ea 9c 64 3e a1 5a 8a 3e
       0.26518098 0.13233534 0.22325483 0.2702227
000180 a8 18 4e be 30 4f af 3c c8 d8 76 be 93 d3 13 be
       -0.20126593 0.021400064 -0.24106133 -0.14436178
000190 a6 18 ed bd 1b 6f 7b be 47 19 9c be d0 59 a2 be
       -0.11576967 -0.24554102 -0.30488035 -0.31709146
0001a0 f0 2c 84 be 08 6a 47 3d 0c 41 e8 bd 40 b9 e7 bd
       -0.25815535 0.048685104 -0.11340532 -0.113146305
0001b0 b6 ba c4 bd 1d ff 85 3e f3 96 6a be 7c fb 95 bd
       -0.09605925 0.26171198 -0.22909145 -0.073233575
0001c0 c0 4c 42 be 21 c2 94 3e b0 73 b4 3c dc df db bd
       -0.1897459 0.2905436 0.02202782 -0.10736057
0001d0 62 5c 55 3e d4 12 f5 3d bf e3 a5 be ea cb 69 3e
       0.20836022 0.11966482 -0.3240032 0.22831693
0001e0 80 4a 87 bc 2f 0f 84 be 70 69 8b bc eb 38 a8 be
       -0.016515017 -0.25792834 -0.01701805 -0.32855925
0001f0 04 f6 d6 3d 60 d9 27 3c 60 25 88 bd 28 ce 1a be
       0.104961425 0.010244697 -0.06647754 -0.15117705
000200 00 e3 0c be d0 16 be bd f6 c4 04 3e 40 1a 9a 3c
       -0.13758469 -0.09281695 0.1296576 0.018811345
000210 80 7c 82 3c 24 3d 8e be 88 a0 48 bd 5c 16 f6 bd
       0.015928507 -0.27781022 -0.04898122 -0.120159835
000220 9e 46 65 be aa 55 1c 3e b8 d9 58 bd 08 73 67 be
       -0.2239022 0.15267053 -0.052942008 -0.22602475
000230 80 fe d7 3d fb 67 33 be 9b e6 6b be b3 47 53 be
       0.10546589 -0.17520134 -0.23037188 -0.2063282
000240 c0 ec d5 bc 84 92 aa bd 71 71 98 3e 7e 21 32 be
       -0.026113868 -0.08328727 0.2977405 -0.17395589
000250 ec 2c 85 be a0 55 25 be 48 26 1c be ac e0 b4 3d
       -0.26010835 -0.16145945 -0.15248978 0.08831915
000260 a2 2a 71 3e 6a 15 55 3e 80 77 08 3d 22 a0 44 3e
       0.2355142 0.2080895 0.03331709 0.19201711
000270 60 51 6f 3c 00 30 8c b9 00 51 0b 3e ec fe 8b bd
       0.014606804 -0.00026738644 0.13605118 -0.06835732
000280 b0 18 22 3e 5e e7 06 be e0 17 31 3c 12 34 2d 3e
       0.1582973 -0.13174197 0.010808915 0.16914394
000290 74 e6 ee 3d c6 3e 86 be a3 68 91 3e 11 78 8e 3e
       0.11665049 -0.26219767 0.28400144 0.27825978
0002a0 89 e9 a9 3e e0 1e 2a be f8 2f 13 3d 85 ff a4 3e
       0.33185986 -0.1661334 0.03593442 0.32226196
0002b0 fa a1 9a be 41 72 9e 3e 9e af 60 3e 80 13 a8 bc
       -0.30201703 0.30946544 0.21941993 -0.02051711
0002c0 a0 65 d7 3d 0c 12 c5 bd 48 19 5a be b3 41 9f be
       0.1051743 -0.09622583 -0.21298707 -0.31104812
0002d0 a8 db 35 be 7e 44 09 3e 8e c4 1a be 00 56 dd 3c
       -0.17759573 0.13405034 -0.15114042 0.027018547
0002e0 1f 64 a4 3e 51 a7 97 3e 6c e7 f9 bd e0 69 00 bc
       0.32107636 0.2961984 -0.12202343 -0.007837743
0002f0 f0 2c f3 bc f0 ae 84 3c 70 f6 98 3d 48 a2 76 bd
       -0.029684514 0.016196698 0.07468879 -0.060213357
000300 ee 51 0a be 5a 6b 15 3e 70 22 90 3d d7 2a a7 3e
       -0.13507816 0.14591733 0.070378184 0.32649872
000310 0e e6 43 3e 30 ab 91 be 0e 7b 69 3e b2 e5 52 3e
       0.19130728 -0.28450918 0.22800848 0.20595434
000320 88 04 4a be 04 cb b2 3d e0 2b 3c 3d 92 3a 5d 3e
       -0.19728291 0.087301284 0.04594028 0.21604374
000330 9b fb 8f be d8 e2 75 be d6 64 9e be fc 9c 9b be
       -0.28121647 -0.24012315 -0.30936307 -0.30393207
000340 27 11 a7 3e b3 fa 91 3e f7 2e 8a be 80 e0 0a 3b
       0.32630274 0.2851158 -0.26988956 0.0021190941
000350 40 d2 fa bb 38 78 11 bd 44 09 d7 3d 40 ab 8f bd
       -0.0076544583 -0.03551504 0.10499814 -0.07015085
000360 7b 59 32 be 12 ce 66 3e 00 be a0 3b 13 e5 a7 be
       -0.17416947 0.22539547 0.0049054623 -0.32791957
000370 8b 2a 97 be 63 19 0b be 9c 54 cf bd c0 0c 8a be
       -0.29524645 -0.13583903 -0.1012356 -0.26962852
000380 91 54 99 3e d2 b5 93 be c0 52 1d 3e 3f 0e 8a be
       0.29947332 -0.28849655 0.15363598 -0.26963994
000390 fa 6e 33 3e 3a 03 5c 3e 5d 0c 88 3e c0 00 c6 bd
       0.17522803 0.21485606 0.26571932 -0.09668112
0003a0 c6 af e8 bd 5e 5d 3d 3e 38 6b 21 bd e1 9e a0 3e
       -0.11361651 0.18492648 -0.039408892 0.31371215
0003b0 89 c8 9a 3e 9e 3d 34 3e 78 71 1d 3d 80 df 49 3b
       0.3023112 0.1760163 0.03843829 0.0030803382
0003c0 7e 68 1c 3e 9f d1 9d 3e 70 ef 81 bd 68 9f 4e bd
       0.15274236 0.3082399 -0.06344497 -0.05044499
0003d0 30 b0 c2 3c 86 f2 31 be 90 5a 20 be c0 bb d7 3d
       0.023765653 -0.17377672 -0.15659547 0.10533857
0003e0 60 e4 02 3e 0a 59 65 3e b0 87 c1 bc a8 48 3e be
       0.1278243 0.22397247 -0.023624271 -0.18582404
0003f0 50 a1 98 be 8e cd 9b be 10 5e c5 3d 2d a6 aa 3e
       -0.29810572 -0.30430263 0.096370816 0.33329907

bias f4 [32]
000000 6b 93 0b be 6e db 06 3e fc 6e 96 bd b5 66 95 3e
       -0.13630454 0.13169643 -0.07345387 0.29179922
000010 76 2d 16 be a8 30 72 be fa 90 26 3e 9e 0b 49 be
       -0.1466578 -0.23651373 0.16266242 -0.19633338
000020 50 55 d2 bc 73 39 92 be 70 98 bc 3c ae 65 76 3e
       -0.025675446 -0.28559455 0.023021907 0.24062225
000030 d4 8e d7 3d 80 a2 54 3b a4 d0 80 bd 08 a8 74 bd
       0.10525289 0.003244549 -0.06289795 -0.05973056
000040 a0 57 4f bd fe 4f a5 be 35 d6 a3 3e 8f e9 9a be
       -0.050620675 -0.32287592 0.31999364 -0.30256316
000050 42 77 30 3e 4c 4d 81 bd 62 b7 47 3e b6 59 5e be
       0.17232993 -0.06313571 0.19503549 -0.2171391
000060 30 80 db bc e0 ba 97 bd 24 c9 b9 3d 68 a9 82 be
       -0.026794523 -0.074086905 0.09071568 -0.25519872
000070 d6 73 27 be 1c 33 b2 3d 86 1d 12 3e f4 66 98 3d
       -0.16352782 0.087011546 0.14269075 0.07441512

weight f4 [64, 32, 3, 3]
000000 50 9a 55 bc 28 96 93 bc 64 cb 83 bc f8 7c 2f bc
       -0.013037279 -0.018015936 -0.016088195 -0.010710947
000010 d6 fb c3 bc 95 c4 69 3d e0 cf 4e bd 9e 19 a0 3c
       -0.023923796 0.05707224 -0.050491214 0.019543465
000020 5d 92 20 3d 89 d9 64 3d a7 c7 01 3d 83 20 5f bd
       0.039202083 0.05587152 0.031684544 -0.054474365
000030 87 60 e8 bc ab 03 41 3d b4 62 08 3c e2 21 12 bd
       -0.02836634 0.04712264 0.008324314 -0.035676844
000040 86 dd c1 3c 6e be 6b bd 8f 74 6b bd 95 ed 1b 3d
       0.0236652 -0.057554655 -0.057484206 0.038068373
000050 60 47 ea bb 1a 30 9a bc ec 34 28 3c 4b 8e 1b 3d
       -0.007149622 -0.018821765 0.010266524 0.037977498
000060 70 ed 07 bc c0 d1 70 3a 48 d5 9e 3b 65 79 5e 3d
       -0.008296356 0.00091865286 0.0048472025 0.05431499
000070 40 e8 46 3a 91 63 0a 3d 08 c0 d3 bb 4e 4b d1 bc
       0.00075877085 0.03378636 -0.006462101 -0.025548603
000080 bd 5e 31 3d f1 4d 3a 3d d0 01 5f bb 11 2a 53 3d
       0.04330324 0.045484487 -0.003402818 0.05155379
000090 00 99 46 ba df fc 4a bd 70 6e 3a bb 96 1b 89 bc
       -0.00075758994 -0.049557563 -0.0028447174 -0.016736787
0000a0 02 4a 23 bd 76 82 6d bd a2 d3 01 bd ea 12 05 bd
       -0.0398655 -0.057985745 -0.03169597 -0.03248874
0000b0 ce 7e 81 3c f8 91 13 bd a3 5d 2c bd f5 60 34 3d
       0.015807535 -0.03602788 -0.042081486 0.044037778
0000c0 64 31 53 3c 88 8f 9b bc 25 0f 06 3d c6 ee 97 bc
       0.012890194 -0.01898934 0.032729287 -0.018546473
0000d0 68 88 cb bb d0 a3 4a bb 39 6b 54 3d 60 b8 35 bc
       -0.0062113293 -0.0030920394 0.051860068 -0.011091322
0000e0 b9 8d 49 3d 56 c0 8e 3c f1 a2 1c 3d 8e 25 36 bd
       0.049207423 0.017425697 0.03824133 -0.04446941
0000f0 42 61 d1 bc db a6 45 3d 05 07 3e 3d 24 c1 61 3c
       -0.025559071 0.04825483 0.046393413 0.0137789585
000100 68 00 58 bc 97 ef 4e 3d 54 db 77 3c bd 72 48 bd
       -0.013183691 0.05052146 0.0151279755 -0.048937548
000110 3d b6 2c bd 92 92 2f bd e4 89 61 bd 2a 00 4e bd
       -0.042165983 -0.04286439 -0.055063143 -0.050293125
000120 b4 05 4b bc a5 87 34 bd bc b3 36 bd d6 ac f6 bc
       -0.012391496 -0.044074673 -0.044605 -0.030111711
000130 0a df f5 3c b3 0f 40 bd a8 c9 41 bd d6 0e e3 3c
       0.03001358 -0.046889972 -0.047311455 0.027717035
000140 ee 32 88 3c e8 24 69 bc 2b 6f 6e bd c0 0f ed bc
       0.016625848 -0.014229991 -0.058211487 -0.028938174
000150 a6 95 8f bc e4 b8 8b bc c4 c9 4c bd 84 32 7c 3c
       -0.017527413 -0.017055936 -0.049997106 0.015392903
000160 6d 4f 21 3d 78 7f 98 bb dd b1 3c 3d e8 e0 a6 3b
       0.039382387 -0.0046538673 0.04606806 0.005092729
000170 e0 e4 28 3b ec 35 e2 bc 4a 3d d0 3c 06 de cd bc
       0.0025771186 -0.027613603 0.02541985 -0.025130283
000180 32 c7 8d 3c f8 2d c7 bc c8 6c 9d 3b 92 be b7 3c
       0.017306898 -0.024313912 0.0048042275 0.022429738
000190 79 50 5f bd 58 9e c6 bc 20 aa b9 bb ab 81 ed bc
       -0.054520104 -0.024245426 -0.0056660324 -0.028992495
0001a0 00 e0 ab bb d1 0d 11 bd fa 67 14 bd 37 ea f3 bc
       -0.0052452087 -0.035413567 -0.036231972 -0.029774768
0001b0 b4 62 50 bc e1 9a 16 3d 1a ed bf 3c 6f ac 55 3d
       -0.012718845 0.036768798 0.023428489 0.0521664
0001c0 c8 6f de bb 48 44 20 bc ee 7e 49 bd 57 a1 66 bd
       -0.0067882277 -0.0097819045 -0.049193315 -0.05630621
0001d0 c8 7a 11 bd 1a 82 a8 3c 66 3e 99 3c 85 bb 67 3d
       -0.035517484 0.02056985 0.018706512 0.056575317
0001e0 3f 81 01 3d a4 aa 5d bc 7b 10 14 3d 04 44 23 bd
       0.0316174 -0.013529453 0.03614853 -0.039859787
0001f0 3e 67 d1 bc 5b a9 51 3d 58 69 df bc e2 69 df 3c
       -0.025561925 0.0511869 -0.027271912 0.027272169
000200 b0 84 65 bb 22 6f 12 bd ab 50 44 3d 9e 17 f2 3c
       -0.0035021715 -0.035750516 0.047928493 0.029552277
000210 54 61 1c bc e4 5e 7d 3c fe 26 27 bd 19 a9 26 3d
       -0.009544689 0.015464518 -0.04080867 0.040688608
000220 52 27 29 bd c4 e6 12 3c 43 f7 f1 bc 58 f9 c0 3b
       -0.041297264 0.008966152 -0.029536849 0.005889099
000230 04 92 24 bc 51 a8 ea bc 40 1c 8e bc 6a f4 be 3c
       -0.010044578 -0.028644713 -0.017347455 0.023309905
000240 78 48 91 bb 13 13 1f bd 32 83 2f bd 5a 0b 86 3c
       -0.004433688 -0.03883655 -0.042849727 0.016362835
000250 b8 80 c2 bc c2 49 33 bd 5a 33 ae bc 07 96 27 3d
       -0.023743019 -0.043771513 -0.02126472 0.04091456
000260 70 a8 12 bb 74 65 70 3c 48 f3 13 bd e8 64 ab bb
       -0.0022378229 0.014672626 -0.036120683 -0.005230535
000270 26 46 6f bd 80 5b 74 ba 0a 58 36 bd 76 f9 df 3c
       -0.05841651 -0.0009321496 -0.044517554 0.027340632
000280 55 cf 28 3d 2b 65 64 3d 80 9f 37 bb ea 42 f6 3c
       0.041213352 0.055760544 -0.0028018653 0.030061204
000290 dc b3 41 bc 15 43 11 3d af 03 49 3d 7c 35 49 3c
       -0.011822667 0.035464365 0.04907578 0.012280818
0002a0 88 d4 d3 3b 7e e6 cc 3c 24 8d c4 bc 3d 9f 15 3d
       0.0064645447 0.025012251 -0.023993082 0.036528815
0002b0 64 ce 04 3c 78 e7 4a bc b7 07 2d 3d 42 13 d6 3c
       0.008105848 -0.012384288 0.042243686 0.02613223
0002c0 fc d3 38 3c 28 e1 63 bd 80 8e 7b 3a 48 76 14 bd
       0.01128101 -0.055634648 0.00095961243 -0.036245614
0002d0 3a f6 14 bd 66 5b f6 bc 7e c8 80 3c 30 d2 5a bb
       -0.036367632 -0.030072879 0.015720602 -0.0033389442
0002e0 4c 6d 55 3c af f1 1e 3d de 10 05 bd c1 ae 13 3d
       0.013026547 0.038804706 -0.03248679 0.03605533
0002f0 73 cf 0f 3d 90 ce 83 bc e9 80 ff bc c4 73 31 3c
       0.03510995 -0.016089708 -0.031189399 0.010830823
000300 24 ce 61 bd 20 b5 23 bc 9a 68 e2 bc ea 6e 24 bd
       -0.05512823 -0.009991914 -0.027637769 -0.04014484
000310 56 86 21 bd 8a b6 06 bd 2c f2 20 3c 51 77 4d 3d
       -0.039434753 -0.032888927 0.009823363 0.050162617
000320 2e 30 b9 3c ee 34 70 bd 2c ce 12 3c f7 c7 08 3d
       0.022605982 -0.058644228 0.008960288 0.033393826
000330 86 0e 9a 3c 00 90 0a b8 20 07 5e bb f4 af 2b bd
       0.018805753 -3.3035874e-05 -0.0033878759 -0.04191585
000340 e5 6a 14 3d 40 ef 42 bd 73 5d 6c bd 58 1f eb bb
       0.036234755 -0.047591448 -0.057706308 -0.0071753673
000350 ca 0f a6 3c 0c de 6b 3c 4e 70 9a 3c 39 38 19 3d
       0.0202712 0.014396202 0.01885238 0.037407134
000360 74 1a 97 bc da 61 02 bd 9e 17 9d 3c 0e 46 9e 3c
       -0.018445231 -0.0318316 0.0191763 0.019320514
000370 9f f0 52 3d 01 31 5a 3d b6 35 e9 3c cf 22 2c 3d
       0.051499005 0.05326939 0.028467994 0.042025384
000380 e5 bf 25 bd 33 af 4c 3d ab e0 13 3d d1 71 0f 3d
       -0.040466208 0.04997177 0.036102932 0.035020653
000390 70 86 1d bd d4 36 de bc 3e 52 23 bd 38 7e cc 3b
       -0.038458288 -0.027125753 -0.039873354 0.0062406324
0003a0 15 14 38 3d 8e 55 85 3c cb 5f 31 3d c4 5c 11 3c
       0.044941027 0.016276147 0.043304246 0.008872215
0003b0 a2 f1 d8 3c f0 31 07 3b 61 cb 3b bd 18 bb 96 bc
       0.026482407 0.002062913 -0.045848254 -0.01839976
0003c0 c9 4f 42 3d 02 9c bd 3c 3e 98 69 bd 64 ad 7a 3c
       0.04743937 0.02314568 -0.057029955 0.015300129
0003d0 e4 f0 bc bc 7e bc d4 bc 84 9c 31 3c 00 b8 8e 38
       -0.023064084 -0.025968786 0.010840539 6.80536e-05
0003e0 3f 9b 35 3d dc 91 5d bd b9 2e 42 3d 3d 91 70 bd
       0.044337507 -0.05409418 0.04740784 -0.05873226
0003f0 dc 06 69 bd b0 11 aa bb 78 e5 ec bc af 61 0c 3d
       -0.056891307 -0.005190097 -0.028918013 0.034272846

bias f4 [64]
000000 60 6a f7 ba 3a 60 88 3c ee 38 eb 3c a7 ae 34 bd
       -0.0018876307 0.016647447 0.02871367 -0.044111874
000010 60 39 84 bc 90 54 7f 3b 6d 02 26 3d b8 7b ce bb
       -0.01614064 0.0038960315 0.040529657 -0.0063013695
000020 82 54 66 bd 50 48 44 3b d8 fe 99 3b 8e dd b9 bc
       -0.056232937 0.0029950328 0.004699569 -0.022688653
000030 28 0a 96 3b 31 e6 3b bd 2c 43 31 bd 38 08 c3 3b
       0.0045788474 -0.045873825 -0.04327695 0.0059519075
000040 48 d8 ee 3b 76 42 d3 bc ea 74 d5 3c 45 c4 58 3d
       0.0072889663 -0.025788527 0.026056726 0.052921552
000050 73 46 61 3d 66 fb ac bc 42 08 31 bd 46 cd d3 bc
       0.054998826 -0.02111597 -0.043220766 -0.025854718
000060 78 2c 55 bc b3 22 16 3d 74 0e 02 bd 84 66 e0 bc
       -0.01301109 0.036654186 -0.031752065 -0.027392633
000070 71 dc 20 3d b8 99 2f bd cc 53 0b 3c 00 c0 87 b7
       0.03927273 -0.042871207 0.008503865 -1.6182661e-05
000080 3e dd fd 3c 0c af 70 bd f3 dd 22 3d e8 6f c6 3b
       0.030989286 -0.058760688 0.03976245 0.0060558207
000090 28 5f e0 3b de 10 f2 3c ab 5a 70 3d 1c 08 74 3c
       0.006847281 0.029549059 0.058680218 0.014894512
0000a0 ec 66 7d 3c 32 83 83 3c 56 25 89 bc 6d b5 5c bd
       0.015466433 0.01605377 -0.016741436 -0.05388396
0000b0 d0 99 c4 bb ec 1b e9 bc da f3 25 bd 30 c4 4c bc
       -0.005999781 -0.028455697 -0.040515758 -0.012497947
0000c0 ac 44 0f bd 74 38 34 bc 64 68 60 bc f5 61 2c 3d
       -0.0349776 -0.010999788 -0.013696764 0.042085607
0000d0 44 18 65 bc 5c 8a 56 bd 5b 48 0f 3d 14 2f 8f bc
       -0.013982836 -0.052378044 0.034981113 -0.017478503
0000e0 0c 7b dd bc 8b f5 1b 3d 60 99 35 bd e0 f3 99 bc
       -0.027036212 0.038075965 -0.044335723 -0.018793046
0000f0 50 0c 4d bb a4 d8 61 3c 80 8d 73 bc 70 73 7f bc
       -0.0031287856 0.013784561 -0.014865279 -0.015591487

weight f4 [128, 64, 3, 3]
000000 43 08 1c 3d e2 54 ef 3c 91 98 10 3d db 08 88 bc
       0.038093816 0.02921528 0.03530175 -0.016605785
000010 f8 c2 82 3b 3c 16 07 bd 18 18 c8 bb 01 67 11 3d
       0.0039905272 -0.03298019 -0.006106388 0.035498623
000020 00 ef a6 bc b8 d0 f8 3b 6c 55 53 3c 13 53 24 3d
       -0.020377636 0.0075932406 0.012898784 0.04011829
000030 0e 3b e4 3c 24 83 24 bd 08 b5 87 bb 84 74 0a bc
       0.02786019 -0.040164128 -0.0041414537 -0.008450631
000040 b8 40 00 bd be e5 d3 bc 00 b0 c3 b9 87 81 1f 3d
       -0.03131172 -0.025866386 -0.0003732443 0.038941886
000050 a0 18 fd 3a aa a2 ff 3c ce be d6 3c 54 bf 21 3c
       0.0019309707 0.031205494 0.02621403 0.009872276
000060 2c 2c 02 bd db a0 86 bc a0 d6 97 3c 2e 6d e9 bc
       -0.031780407 -0.016434124 0.018534958 -0.028494444
000070 96 96 c7 3c 63 4f 81 bc d2 5e d4 3c 60 e7 2f 3c
       0.024363797 -0.015784925 0.02592412 0.010736316
000080 f0 85 a6 bc 38 9c 07 bd f0 8f 22 bd 1d e7 13 3d
       -0.020327538 -0.033107966 -0.03968805 0.03610908
000090 06 17 99 bc 54 4e 34 3c 7a fe d8 3c 00 f5 86 3c
       -0.018687736 0.011005003 0.026488531 0.016474247
0000a0 db fb 8e bc 55 73 20 3d 65 74 02 3d 0e f7 a1 3c
       -0.017454078 0.03917249 0.031849284 0.019771125
0000b0 ca f0 cf 3c 60 0a 3e bc 78 be 88 bb ea dc 22 bd
       0.025383372 -0.011599153 -0.0041730963 -0.03976146
0000c0 da 6e 06 bd b5 96 22 3d ec 03 2a bc 40 73 bc 3b
       -0.03282056 0.039694507 -0.010376912 0.0057510436
0000d0 e1 6a 16 3d 06 f0 bd 3c 18 4a a5 3b 93 e3 13 3d
       0.03672302 0.023185741 0.005044233 0.036105704
0000e0 cc f4 78 bc 5a 59 9c 3c 30 cf 26 bd 0a 7e a9 3c
       -0.015195083 0.019085575 -0.040724933 0.020689983
0000f0 1b fe f3 bc 8a 64 be 3c 53 c3 18 3d a4 da 58 3c
       -0.029784253 0.0232413 0.03729565 0.013235722
000100 90 0d 2a bb 96 00 ac 3c ba a2 bc 3c 3b 80 80 bc
       -0.0025948025 0.020996373 0.023026813 -0.015686145
000110 30 a6 50 3b 37 cd 0c bd 00 a0 7f 3a 90 7a 56 bb
       0.0031837337 -0.034375396 0.000975132 -0.0032726862
000120 20 fe 8c 3a 94 a8 22 bd e0 a3 7d 3c 62 1e d2 3c
       0.0010756887 -0.03971155 0.015480965 0.025649253
000130 fc 35 4d 3c 40 f4 40 ba 3c ac 2e 3c 60 31 ae 3b
       0.012525078 -0.0007360615 0.010661181 0.0053159446
000140 78 b4 f9 bb 57 cf 08 3d 3a b0 11 bd 23 6c c6 bc
       -0.0076203905 0.03340086 -0.035568453 -0.024221485
000150 63 ab 91 bc 5c 75 48 bc 30 c0 4a 3b 04 0c 2e 3c
       -0.017781919 -0.012235012 0.0030937307 0.010622982
000160 3b 4a 12 bd db e5 ef bc 2c e7 28 bc 11 d5 09 3d
       -0.035715323 -0.029284408 -0.010309022 0.03365046
000170 20 e8 fc ba da 1b ff 3c d3 de c4 bc f8 3b b0 3b
       -0.0019295253 0.03114121 -0.024032032 0.0053782426
000180 26 82 70 bc 3e 75 96 bc c0 5d 75 bc d0 ed 28 bc
       -0.014679467 -0.018366452 -0.014975965 -0.010310605
000190 30 b0 67 3b f0 fd 61 bc 9a ce ca 3c 0a 89 e7 3c
       0.0035352819 -0.013793454 0.024756718 0.028263588
0001a0 6a 63 bc 3c 20 da 52 3c 23 80 11 3d b4 26 10 bc
       0.022996623 0.012869388 0.03552259 -0.00879829
0001b0 e4 26 48 3c 2c 75 5e 3c 8f 27 00 bd d6 fb 6d bc
       0.0122163035 0.013577741 -0.031287726 -0.014525374
0001c0 bc ff 24 bd 03 e3 ff bc 0b 92 09 bd 7c e6 70 3c
       -0.04028295 -0.031236177 -0.033586543 0.014703389
0001d0 5d 10 0e 3d b4 1e 04 3c a4 42 32 3c 8b 9b 09 3d
       0.034683574 0.008063961 0.010880146 0.033595603
0001e0 fb bf f9 bc a0 d9 a4 3a ee cc 98 3c 7c 11 26 bc
       -0.030487051 0.0012577064 0.018652406 -0.010136005
0001f0 b5 72 0a 3d 0d bd 20 3d c2 30 bd 3c 50 19 1c bc
       0.0338008 0.039242793 0.023094539 -0.009527519
000200 30 28 38 bb 50 88 3c 3b c6 2d 47 bc 70 4b 13 3c
       -0.0028100125 0.0028767772 -0.012156909 0.008990154
000210 20 26 df 3a 80 b0 39 bc d3 ce 04 3d 5e d6 8c 3c
       0.0017024912 -0.011333585 0.032423805 0.017192062
000220 f0 0c c7 bc fb a6 f9 bc eb 17 c4 bc ea e7 8e 3c
       -0.024298161 -0.03047513 -0.023937186 0.01744457
000230 00 4c 16 b8 e3 0a 05 3d e0 bd fe bb 60 9e 60 3c
       -3.5833567e-05 0.032481086 -0.0077740997 0.013709635
000240 80 12 2e bb 72 aa 09 bd f2 d3 c0 3c 43 98 13 bd
       -0.002656132 -0.033609815 0.023538563 -0.03603388
000250 b8 d1 f4 bb 40 65 13 bb ec e4 20 bd ee b1 cc bc
       -0.0074712895 -0.002249077 -0.039280817 -0.024987187
000260 e2 2d c0 3c c0 ec 26 3b c0 f0 94 bc 85 44 12 3d
       0.023459379 0.0025470704 -0.018181205 0.035709877
000270 a8 30 ab 3b 78 9c cd bb 00 d0 10 37 a0 2c ce bc
       0.005224306 -0.006274756 8.631498e-06 -0.025167763
000280 13 c1 11 3d e2 84 98 3c 83 a0 f7 bc c4 80 17 bd
       0.03558452 0.018618051 -0.030227905 -0.036988035
000290 40 67 d4 bb e5 28 0e 3d e2 a1 d7 3c 84 eb 1f bc
       -0.006482035 0.03470697 0.026322309 -0.009760741
0002a0 ae e8 bf 3c ec d1 5c bc a0 22 aa bb e6 ed c4 bc
       0.02342638 -0.013477784 -0.005192116 -0.02403922
0002b0 05 c2 15 3d 3b df 0f bd c6 30 8e bc 80 d6 f4 ba
       0.036561985 -0.035125 -0.017357241 -0.0018679649
0002c0 11 51 13 3d 95 fd 24 3d 6c b1 2b bc 00 b2 6f bc
       0.035965983 0.040280897 -0.010479312 -0.014629841
0002d0 8d 43 22 3d e1 dd 01 3d 92 60 cd 3c 58 ab 14 bd
       0.039615203 0.03170574 0.025070462 -0.03629622
0002e0 13 08 04 3d 0b 6e f8 bc f2 35 eb 3c 9d 37 1a 3d
       0.032234263 -0.03032591 0.028712247 0.037650693
0002f0 84 4c 74 3c 7c a5 0e 3c bf a0 1e 3d 8c d0 67 3c
       0.014910821 0.008706447 0.03872752 0.014148843
000300 00 54 85 ba 40 05 ef bc dd a9 22 3d 9a c7 0d bd
       -0.0010172129 -0.029177308 0.039712775 -0.034614183
000310 40 f6 53 3b 6e 15 c5 bc b8 31 97 3b 83 74 02 bd
       0.0032342821 -0.02405807 0.0046140812 -0.031849395
000320 20 e4 86 bb 00 33 ac bc 0a 20 af 3c 88 7c 85 3c
       -0.00411655 -0.021020412 0.021377582 0.016294733
000330 ac c9 54 3c 2e 47 99 3c dc cc 6e bc c0 1f 10 ba
       0.012987535 0.018710699 -0.0145752095 -0.0005497895
000340 82 c0 03 bd dc 4d 51 3c a6 9c 06 bd 38 c8 be bb
       -0.03216601 0.012774911 -0.032864235 -0.005822208
000350 58 f1 9d 3b b8 1f e9 bc 50 36 55 3b 13 6e bc bc
       0.00482003 -0.028457507 0.0032533593 -0.023001706
000360 93 0b a6 bc 29 8e 16 3d 60 22 c4 bc da a3 01 bd
       -0.02026919 0.03675667 -0.023942173 -0.0316504
000370 b0 81 5a bc 8e ef 01 bd 5c c4 5c bc 16 79 62 bc
       -0.013336584 -0.031722598 -0.01347455 -0.013822814
000380 10 99 3b bb 98 dd a2 3c 81 22 23 3d e4 e0 05 3c
       -0.0028625168 0.019881055 0.039827827 0.008171294
000390 e7 74 0c 3d d6 27 51 bc 67 4c 01 3d a2 74 fd 3c
       0.034291174 -0.012765845 0.031567004 0.030939404
0003a0 2e 8d ab bc 30 a7 7f 3c 33 7d 26 bd e2 97 f8 3c
       -0.020941343 0.015603825 -0.040646743 0.03034586
0003b0 db 7d ae bc 2e 47 18 bd 89 03 29 3d dc 0a 40 3c
       -0.021300247 -0.037177257 0.041263137 0.011721339
0003c0 70 28 1d 3b 2e 46 e3 bc 20 2d d7 bc 4e e6 b9 bc
       0.0023980401 -0.027743425 -0.026266634 -0.022692826
0003d0 01 1f 1d 3d e4 d9 1c 3c 61 49 0b 3d 40 17 8f bc
       0.038359646 0.009573434 0.034005526 -0.017467141
0003e0 7e 93 cb 3c d0 05 1d 3c b6 a6 08 bd c6 dd b0 bc
       0.024850603 0.009583905 -0.033362113 -0.021590125
0003f0 ca ae b6 3c f0 67 1a bc 66 0a c6 bc a8 ff ba bc
       0.022300143 -0.009424195 -0.02417488 -0.022826985

bias f4 [128]
000000 c0 ca db bc 60 26 8a 3b 6b 58 f8 bc b8 aa a3 3b
       -0.026830077 0.0042160004 -0.030315598 0.0049947165
000010 e0 3a 88 ba 69 b6 12 3d b9 12 0e 3d 50 e6 68 3c
       -0.0010393523 0.03581849 0.034685824 0.014215067
000020 00 ae e8 b9 3e cd c9 3c d0 bd b1 bc 33 92 c0 bc
       -0.00044380128 0.024634 -0.021696955 -0.023507213
000030 94 7b 08 bd 8b 5a 27 3d a0 18 23 bc c2 75 84 3c
       -0.03332098 0.040857833 -0.0099546015 0.016169433
000040 2c e6 74 bc b2 c0 22 bd 00 f8 81 38 4b 8a 22 3d
       -0.014947455 -0.03973455 6.197393e-05 0.039682668
000050 80 e1 0c 3c ae 86 2a bd 0a 05 bb 3c 60 bb 96 3a
       0.008598685 -0.041632347 0.022829551 0.0011499934
000060 16 22 ea 3c a0 ae 29 3c 00 8e 32 ba 5b cb d2 bc
       0.028580707 0.010356575 -0.0006811321 -0.025731733
000070 d8 f7 d7 bb 20 92 e2 bc 7a b5 c4 3c 10 aa 29 3c
       -0.0065908246 -0.027657568 0.024012316 0.0103554875
000080 f5 5e 13 3d 30 c8 1f bd 2b 3f 1b bd 38 44 9d bc
       0.03597923 -0.039009273 -0.03790204 -0.019197568
000090 7f 39 0b 3d 5a a8 f6 3c 1c 7b 6f 3c 18 e3 b2 bc
       0.03399038 0.030109573 0.014616754 -0.021836802
0000a0 20 4a e5 ba f6 72 9f bc 80 a9 e9 3a 40 aa a4 3b
       -0.0017493404 -0.019463997 0.0017827004 0.005025178
0000b0 ba 1b 82 3c 30 56 04 bc 47 9f 22 3d 9a 1f 03 bd
       0.015882362 -0.008077189 0.03970268 -0.03201256
0000c0 2e a7 cc 3c e0 b4 1b 3c c0 06 ba bb 5e 1c 0a bd
       0.024982061 0.009503573 -0.005677074 -0.03371846
0000d0 b6 92 bb 3c d2 42 f9 3c 30 4e 38 3c 8b eb d4 bc
       0.022897106 0.03042737 0.01124911 -0.025991222
0000e0 20 cf 9a 3c 15 5e 10 3d 00 c4 3a bc 6a b8 d5 3c
       0.018897593 0.035245974 -0.011399269 0.026088912
0000f0 3c 47 06 3c 60 14 b9 bb 18 2a 84 3b 98 2c ed 3b
       0.008195695 -0.005648181 0.0040333383 0.007237982
000100 b0 63 0e bd 82 62 ef 3c 4d 96 15 3d 6b 6e 21 3d
       -0.03476304 0.029221777 0.03652029 0.039411943
000110 8c 9a 28 3c 30 e6 7d bc ee 54 fa 3c 8b d7 a4 bc
       0.010290753 -0.0154967755 0.030558076 -0.02012231
000120 38 99 b3 bb ec 54 33 3c ba 08 ec 3c 30 9f 9e 3c
       -0.0054809116 0.01094554 0.028812755 0.019363016
000130 7e a2 d3 3c 00 b5 7e 3c 24 75 23 3c 22 e2 9d 3c
       0.025834318 0.015546083 0.009976659 0.019272868
000140 ee ce d7 3c 96 57 d6 3c ef f9 17 bd ac 06 35 bc
       0.026343789 0.026164811 -0.03710359 -0.011048954
000150 c0 2d d8 bb 87 6f 00 bd 6a e5 d8 3c fa aa db 3c
       -0.0065972507 -0.03135636 0.02647658 0.026814926
000160 a4 e2 02 bd ae 46 9c 3c 68 79 e5 bb f4 b4 77 3c
       -0.031954423 0.019076671 -0.007002998 0.015118826
000170 aa 4c af 3c c3 37 0c bd 18 31 d1 3b b8 44 9c 3c
       0.021398861 -0.034232866 0.0063840263 0.019075736
000180 31 63 0c 3d 40 57 47 bc 34 23 61 3c 7c 5a 4b 3c
       0.034274284 -0.012166798 0.013741303 0.01241171
000190 fd 4f 09 3d 56 21 a7 3c 90 8c 0c 3b 6f 70 0e bd
       0.03352355 0.020401638 0.0021446086 -0.034775194
0001a0 6e 6c 8c bc 30 28 32 bb 16 80 a9 bc b6 52 98 3c
       -0.017141547 -0.0027184598 -0.020690959 0.018594127
0001b0 cd e1 03 3d 7e d1 a7 bc 44 ef 18 bc 8a be c0 3c
       0.032197762 -0.020485636 -0.009334389 0.023528356
0001c0 43 22 2a bd a0 c1 25 3c 00 42 6b bc b0 72 2f bc
       -0.04153658 0.010116965 -0.014358997 -0.010708496
0001d0 e2 f9 dc 3c c0 1d 01 3a 15 47 24 3d 60 24 f1 bb
       0.026974622 0.00049253926 0.04010685 -0.0073590726
0001e0 24 67 66 3c 7b 96 22 3d 71 3a 27 3d 70 3c 02 bd
       0.014062677 0.03969429 0.04082722 -0.03179592
0001f0 db 61 92 bc a0 58 8e bc e8 92 f9 bb f7 58 10 bd
       -0.017868927 -0.017376244 -0.0076163895 -0.035241093

weight f4 [64, 128, 3, 3]
000000 c5 97 69 bc a1 19 80 3c 50 2d d0 3a 4b bc c1 3c
       -0.014257376 0.01563722 0.0015882645 0.023649355
000010 a0 5e a9 3a 5e 13 74 3c 70 05 f4 ba 94 9a fc 3b
       0.0012921877 0.014897196 -0.0018617343 0.007708857
000020 5c 59 d5 3b d8 ef af bc 47 b9 e0 3c f3 f6 ae 3c
       0.0065108966 -0.021476671 0.027432097 0.021357989
000030 7e 30 69 3c 62 a3 45 3c 87 c9 ef 3c a8 21 e6 bb
       0.014232753 0.012062879 0.0292709 -0.007023055
000040 dd 8a aa 3c c0 90 cf bb a0 bf bb bc 40 f5 a4 bc
       0.020818168 -0.006334394 -0.022918522 -0.020136476
000050 f4 fe e9 3b 4a fd 10 bc 45 7b b0 bc 79 20 de bc
       0.0071409885 -0.008849451 -0.021543154 -0.027115094
000060 3b b2 ac bc 28 43 3e bb de 1b 4f 3c 53 38 f0 bc
       -0.02108108 -0.0029031727 0.012640921 -0.029323732
000070 64 e1 bd bc 0c a5 a3 bb 43 f3 e4 3c c8 6e 58 bb
       -0.023178764 -0.0049940404 0.027948027 -0.0033025015
000080 6b 78 cc bc d6 5f 99 bc 85 c8 97 bc 2c f5 b1 bc
       -0.024959764 -0.018722456 -0.018528232 -0.021723352
000090 72 d2 2e 3c 47 97 94 3c d0 6c 11 bb 29 7e e3 bc
       0.010670291 0.01813854 -0.0022190101 -0.027770119
0000a0 a0 ca 75 3a 92 1e a6 bc 78 22 a1 bc b8 7e c6 bb
       0.0009376202 -0.020278249 -0.019669756 -0.0060575865
0000b0 ec 74 a6 3b 78 c1 ce bc 81 51 99 3c 52 b5 45 3c
       0.005079856 -0.025238737 0.018715622 0.012067156
0000c0 99 88 96 bc e4 42 b9 bc c3 9b 9c bc bf 4c dd bc
       -0.018375682 -0.022614904 -0.019117242 -0.027014134
0000d0 a8 bf 68 3b dd 73 80 3c 52 e1 85 bc bc cf 17 bc
       0.0035514627 0.015680248 -0.016342793 -0.009265836
0000e0 30 47 2c bb a9 d7 ae 3c 5e 40 a4 bc 61 6a c8 3c
       -0.0026287548 0.02134307 -0.020050224 0.024464788
0000f0 cc 21 ad bc 28 0a 39 3b d1 6d 9b 3c e5 17 ec bc
       -0.02113428 0.0028234813 0.018973263 -0.028819988
000100 90 f6 f0 3a 50 90 a5 ba a0 a0 b1 ba f6 57 de bc
       0.0018384028 -0.001263151 -0.0013551898 -0.027141552
000110 a2 64 20 3c 3d 2e e5 3c ed 61 d9 3c 40 9e 0f ba
       0.009789618 0.02797615 0.026535952 -0.0005478598
000120 18 fe 54 3b 79 a6 81 bc 18 d5 3d bb 54 b5 ff 3b
       0.0032500084 -0.01582645 -0.0028966125 0.0078035984
000130 d8 e7 b6 bc dc 2b dd bb a9 f4 94 3c 9c 91 31 bc
       -0.022327349 -0.006749613 0.01818307 -0.010837939
000140 a8 a6 5d bc 28 8e 08 3b d7 c9 dc 3c 5a a2 20 bc
       -0.0135285035 0.0020836685 0.026951713 -0.009804333
000150 4c 42 c6 3b 86 4a 89 bc 0c 93 ce bb 57 09 88 3c
       0.0060503837 -0.016759168 -0.0063041504 0.016606016
000160 10 05 4d bb be ce 81 bc 2a 57 48 3c eb 17 ca 3c
       -0.0031283535 -0.015845653 0.012227813 0.024669608
000170 fe b7 0a 3c e6 67 79 bc f8 ac 07 bb 8e be cf bc
       0.008466719 -0.015222525 -0.0020702463 -0.025359418
000180 90 02 e8 bc 1a 0f 1a bc f4 ac a9 bb 89 fd e2 3c
       -0.028321534 -0.009403015 -0.0051780883 0.027708786
000190 3a d2 84 bc 78 5b 09 3b c3 64 c2 3c aa d5 0b 3c
       -0.016213525 0.002095906 0.023729688 0.008534828
0001a0 d5 be 8a 3c 0e 83 a3 bc fc 90 f7 3b ea 26 7c 3c
       0.016936699 -0.019959953 0.0075551253 0.015390137
0001b0 ff 06 d3 bc 7d ca a3 3c 0d 78 dd 3c de e1 15 bc
       -0.025760172 0.019994015 0.027034784 -0.009148089
0001c0 56 3e 26 3c ea 32 8b bc d8 82 ef bc cb f2 e5 bc
       0.010146698 -0.016992051 -0.029237196 -0.028069874
0001d0 3f 6c ee 3c 88 4e 7b bb fe 3b 3b 3c 30 5d 98 3a
       0.02910435 -0.0038346369 0.0114278775 0.0011624452
0001e0 21 9d a8 3c ce 0e 99 bc 90 df 7a bc d0 95 33 bc
       0.020582737 -0.018683817 -0.0153120905 -0.010961011
0001f0 c2 fa 07 3c b4 54 a7 3b 00 6f 1c 39 c0 be af b9
       0.008299531 0.005106533 0.0001491867 -0.0003352072
000200 fd e5 b2 3c d3 b4 85 3c b2 5f 2b 3c f2 08 9f bc
       0.021838183 0.016321575 0.010459827 -0.019413445
000210 66 38 68 bc f9 cf bd bc 73 70 b3 bc 48 93 86 bb
       -0.014173603 -0.023170458 -0.021904206 -0.0041069128
000220 30 ba cf bc 31 cf bd 3c 73 9a be bc 7a b5 58 3c
       -0.025357336 0.023170086 -0.023267007 0.013226861
000230 eb 66 9a 3c 9f 73 ac 3c ae 28 16 3c 09 f2 e4 3c
       0.018847903 0.021051226 0.009164972 0.027947443
000240 84 d0 ff 3b 39 18 e7 3c cb d8 8a bc 4a e6 72 3c
       0.0078068394 0.028209792 -0.016949078 0.014825413
000250 88 d1 1b bb 61 61 ef 3c 70 be a3 3a 68 a2 42 3b
       -0.0023776013 0.029221239 0.0012492668 0.0029698852
000260 5e d8 04 3c 89 44 86 bc ca c0 12 3c 80 8d 66 39
       0.008108227 -0.016390102 0.008957097 0.00021987222
000270 a8 58 35 3b f7 27 ad 3c c6 8f b2 bc 83 59 ed 3c
       0.0027671251 0.02113722 -0.021797072 0.028973347
000280 b0 4f 79 bb e4 62 95 3b 7c d8 fc 3b 20 a3 84 bb
       -0.0038041882 0.004558908 0.0077162366 -0.0040477663
000290 70 60 85 3a 7d 13 c5 bc 0c 81 92 bc d4 6c 48 bc
       0.0010175835 -0.024057144 -0.0178838 -0.012232978
0002a0 ec a0 ea bb ad 26 e0 3c 21 60 9f 3c 88 0e 8d bc
       -0.0071602967 0.027362192 0.019455018 -0.017218843
0002b0 7b 2c ef 3c 00 49 5e b9 c3 54 ca 3c d6 a8 00 3c
       0.029196015 -0.00021198764 0.02469862 0.007852754
0002c0 16 f9 24 3c 03 ee 99 3c 1f 34 a3 3c c4 d2 8e bc
       0.010069152 0.01879025 0.019922314 -0.017434485
0002d0 f0 ab 87 ba e1 09 a7 3c a0 ce fe ba b4 45 15 bc
       -0.0010350924 0.020390453 -0.0019440241 -0.009110857
0002e0 cf ad a6 3c dc 00 ab 3b b8 b3 89 bc 6c 77 b2 3b
       0.02034655 0.0052186083 -0.01680933 0.005446365
0002f0 29 f8 dc 3c 94 79 a6 bc ce ed 0f 3c ce e3 0c bc
       0.0269738 -0.020321645 0.008784724 -0.008599235
000300 e5 5f c3 bc 20 59 1a 3a 64 9f f5 3b b0 8f 98 bb
       -0.023849437 0.00058879144 0.0074958075 -0.0046558008
000310 a8 49 31 3b ce f1 09 3c b5 96 a7 3c e8 22 c3 bc
       0.002705196 0.008419467 0.020457605 -0.023820356
000320 6c 80 d7 3b b2 71 70 3c 5e aa 98 bc ec 26 8d bc
       0.0065765884 0.014675545 -0.018635925 -0.017230473
000330 0e 11 36 3c 8c 3d e0 3b 47 5b dd 3c fe 48 03 3c
       0.011112465 0.0068432745 0.027021063 0.008013008
000340 93 09 ec 3c ce 87 a6 bc 29 ab 92 3c 52 ef 01 bc
       0.02881316 -0.020328429 0.017903881 -0.007930594
000350 b1 16 d8 3c 58 b0 a4 bc 4a e4 52 3c 88 1f 2a bc
       0.026378008 -0.020103619 0.012871811 -0.010383494
000360 95 2e a1 3c 6b 6c 83 3c a2 c6 1a 3c c8 5e 22 3b
       0.019675532 0.016042909 0.009446772 0.0024775732
000370 6a fa 81 bc 1a 30 29 bc 17 ab d8 bc 8b aa de bc
       -0.015866477 -0.01032641 -0.02644877 -0.02718093
000380 80 58 21 b9 ff 4c cc 3c d0 d6 e1 3a 7e ca 2a 3c
       -0.00015387125 0.024939058 0.0017230157 0.010424254
000390 6a fe 89 bc d7 44 d0 bc 16 24 6a 3c 3e cf 9d bc
       -0.016844947 -0.02542345 0.01429083 -0.01926386
0003a0 47 3e cb 3c bc 5a 46 bc ac 9f 56 bc 7f b0 a0 bc
       0.02480997 -0.012106594 -0.013099592 -0.01961541
0003b0 98 6c 2b bb 65 a9 a3 3c 00 93 4a b9 40 e4 d5 ba
       -0.0026157256 0.019978235 -0.00019318983 -0.0016318634
0003c0 b7 e9 a9 3c 20 57 b7 bb 44 d9 fd 3b a7 82 e6 bc
       0.020741327 -0.005595103 0.0077468473 -0.028138472
0003d0 38 f6 17 bc 36 a7 4e bc f5 5f 96 3c 37 8b bd 3c
       -0.009275012 -0.012613108 0.018356303 0.023137672
0003e0 fa 7a d3 bc 4e 5b 3c 3c e6 00 2d bc 76 f8 96 bc
       -0.025815476 0.011496378 -0.010559296 -0.018429022
0003f0 f2 c0 7e 3c e2 20 a7 bc 4b 31 dc bc c1 87 a2 bc
       0.015548931 -0.020401422 -0.026878973 -0.019840123

bias f4 [64]
000000 ad 58 c0 3c 43 a2 cb 3c 0a b7 e7 bc fc e5 02 bc
       0.023479784 0.024857646 -0.028285522 -0.007989403
000010 b4 7f 02 bc 12 6d 63 3c 6a 71 eb bc b1 33 8c 3c
       -0.007965017 0.013880985 -0.028740603 0.017114492
000020 a0 4d c8 3a 90 50 83 ba 58 70 37 3b 92 d9 e6 bc
       0.0015281923 -0.0010018516 0.0027990546 -0.028179917
000030 2a 23 7e 3c f7 6e d8 bc 52 a3 54 bc 40 21 c7 bc
       0.015511313 -0.0264201 -0.012978392 -0.024307847
000040 14 72 c3 bb cf c2 b8 bc a3 90 89 bc 04 2b ee bb
       -0.005964527 -0.02255383 -0.016792601 -0.0072683115
000050 ac cb f9 bb 84 a3 eb 3b ba 4a 4b 3c 42 4e 22 3c
       -0.0076231565 0.0071911234 0.012407953 0.009906353
000060 de b9 28 3c d1 c7 ca 3c 22 11 cd bc 74 bb e0 3b
       0.01029822 0.024753483 -0.025032584 0.0068582837
000070 0b 59 88 3c c6 cf 6e 3c 64 ca 97 3b 49 13 6e bc
       0.016644021 0.014575904 0.004632281 -0.014530965
000080 18 1f e7 bc 65 c2 ec bc 53 05 c0 3c 5c 4a 8f bc
       -0.028213069 -0.028901288 0.023440039 -0.017491512
000090 60 b0 e2 3a e2 e1 ec bc c0 b0 75 bb 80 68 b6 ba
       0.0017294995 -0.028916303 -0.0037489384 -0.0013916641
0000a0 13 25 a8 3c 0b 39 a8 bc 3f aa d8 3c e0 56 32 ba
       0.02052549 -0.020535013 0.026448367 -0.00068031065
0000b0 17 87 dd bc f0 30 80 bb 31 3e d1 3c a1 e4 cf 3c
       -0.027041955 -0.003912084 0.02554235 0.025377573
0000c0 18 77 9e bb df 4b ea 3c fb 71 a3 3c 40 96 88 bb
       -0.0048359744 0.028600631 0.019951811 -0.004168302
0000d0 93 42 b0 3c d8 e1 61 3b 07 82 bd 3c be ef b0 bc
       0.02151612 0.0034466889 0.023133291 -0.021598693
0000e0 63 b2 aa 3c 12 a8 2f bc 62 0f 2a 3c f8 73 89 bc
       0.020837015 -0.010721223 0.010379644 -0.016778931
0000f0 92 d6 22 bc e4 c4 d3 bc e6 f3 a0 bc d1 fc 99 3c
       -0.009938853 -0.02585072 -0.01964755 0.01879731

weight f4 [32, 64, 3, 3]
000000 8e c5 cd bc 15 87 04 3d ba 6b e8 3c aa 34 e1 3c
       -0.025118615 0.032355387 0.02837168 0.027490932
000010 b2 da ab 3c d0 6d 64 bb 70 b8 67 bb 18 83 bc 3b
       0.020978305 -0.0034855492 -0.0035357736 0.0057529323
000020 08 2e 92 bc e6 42 a2 3c bc 88 05 bd 13 12 af bc
       -0.017844215 0.01980729 -0.032601103 -0.021370923
000030 06 9b b7 3c ac 7b 6f 3c 03 5c fc bc 90 6f 07 3b
       0.022412788 0.014616888 -0.030805593 0.0020665862
000040 5c c1 22 3c 70 7b 4b bc 70 02 cc bc 48 cf d9 3b
       0.009933796 -0.0124195665 -0.024903506 0.0066470243
000050 98 de b5 bc b7 23 0c bd 70 68 73 3b 57 00 1f bd
       -0.022200868 -0.034213748 0.0037141107 -0.038818683
000060 5c d0 6f bc a2 95 a5 3c 1d 3a 0a 3d 60 c2 bf 3a
       -0.014637079 0.020212952 0.033746827 0.0014630072
000070 e0 90 fc 3b 72 88 0e bd 90 08 53 bc 9e 1c a0 3c
       0.0077077 -0.034798093 -0.012880459 0.019544896
000080 28 28 d9 bb ac 5a 7e bc 33 dc 21 3d 83 bc 87 bc
       -0.0066271015 -0.015524548 0.03951664 -0.016569382
000090 e8 2a fb bb ab e0 0c 3d f8 26 aa bc 40 28 70 3c
       -0.007665027 0.034393948 -0.020770535 0.014658034
0000a0 e9 58 20 3d 75 d2 11 3d 9b 30 03 bd 38 d6 f8 bb
       0.03914729 0.035601098 -0.032028776 -0.0075938962
0000b0 6b 3a 11 bd 80 04 d0 b9 74 75 29 bc f0 0f 34 3c
       -0.035456102 -0.00039676204 -0.010342944 0.010990128
0000c0 74 48 45 3c c3 27 ed bc 94 ee 07 bd 60 9c 07 3c
       0.0120412 -0.028949624 -0.03318651 0.008277029
0000d0 08 de a6 bc 80 32 c9 39 72 c1 ad 3c 5f 15 11 3d
       -0.020369545 0.00038375333 0.021210406 0.03542077
0000e0 42 40 fa 3c ec a8 36 3c 26 c8 f5 3c 7c 18 06 bc
       0.030548219 0.011148673 0.030002665 -0.0081845485
0000f0 22 89 ba 3c bb 2a ba bc c2 7f e7 3c ea ac 84 3c
       0.022770468 -0.022725454 0.028259162 0.016195733
000100 a6 23 1b bd da ee be 3c 30 a4 5c bc 9c 16 7a bc
       -0.037875794 0.023307253 -0.01346688 -0.01526418
000110 80 d7 d1 ba 56 50 f7 3c 30 bf b3 bc 61 e0 0e 3d
       -0.0016009659 0.030189674 -0.021941751 0.034881953
000120 49 be 08 3d bb 90 c5 bc 10 72 88 bc d0 5d 97 3c
       0.033384595 -0.024116864 -0.016655952 0.01847735
000130 dd e2 21 3d 05 59 1b 3d 82 63 95 3c f0 04 02 3c
       0.039522994 0.037926693 0.018235926 0.0079357475
000140 33 34 a8 bc d0 e7 bf bc 40 c9 0c 3b 3d ef 11 3d
       -0.020532703 -0.023425967 0.002148226 0.035628546
000150 32 db e1 3c c5 50 18 3d 70 aa 9e 3c e7 54 11 3d
       0.02757034 0.037186403 0.01936838 0.03548136
000160 53 a8 9a bc 7c b1 61 3c bd fc 08 3d 73 d9 14 bd
       -0.018879091 0.013775226 0.033444155 -0.03634019
000170 6e e7 f9 3c 88 d3 93 bb e6 95 29 bd 2c d6 13 bc
       0.030505862 -0.0045113005 -0.04140272 -0.0090232305
000180 c6 04 ee bc 98 91 bb bc 64 6e 08 bc 22 34 ab 3c
       -0.02905501 -0.022896573 -0.0083271 0.020898882
000190 b6 0f bd bc a6 b6 9f 3c 8d 5a 16 3d 2b 2b ea bc
       -0.02307878 0.019496273 0.03670745 -0.028585037
0001a0 6a 61 14 bd b0 b9 df bc c0 4c 1d 3b 78 71 cc bc
       -0.036225714 -0.027310222 0.0024002045 -0.02495645
0001b0 4c 43 40 bc c8 d8 91 bc 2f 5d 04 bd 77 21 07 3d
       -0.011734795 -0.017803565 -0.03231543 0.0329909
0001c0 d4 87 7b 3c d1 8b 20 3d 34 86 7e 3c 00 fe 2d bb
       0.015352208 0.03919584 0.015534926 -0.00265491
0001d0 e6 73 b3 3c 9e 8b d3 3c 4b 45 14 bd 60 c3 f2 3a
       0.02190585 0.02582341 -0.036198895 0.0018521361
0001e0 28 80 14 bd 6c 61 2b 3c bc 9d 27 3c de 90 cd bc
       -0.03625503 0.010460239 0.010230478 -0.025093492
0001f0 92 77 c6 3c 66 82 d9 3c d2 ca e2 3c ea 6b ea 3c
       0.024226937 0.026551437 0.027684603 0.02861591
000200 56 58 79 bc d8 45 02 bd 41 c6 0c 3d 80 28 bd b9
       -0.015218815 -0.03180489 0.034368757 -0.00036079064
000210 a0 c5 f7 bc 2c 44 4c 3c 30 94 54 bc b8 11 c8 bc
       -0.030245602 0.012467425 -0.012974784 -0.024422511
000220 40 ba 77 3b 40 fd 97 bb ee 49 e3 bc 56 80 d0 3c
       0.0037800223 -0.004638344 -0.027745213 0.02545182
000230 00 80 f6 3a 16 96 bc bc 94 02 39 3c e8 5e eb 3b
       0.0018806458 -0.023020785 0.011292119 0.0071829446
000240 24 d6 43 3c 66 60 cd 3c 33 ca b6 bc c0 04 b2 bc
       0.011952911 0.02507038 -0.022313213 -0.02173078
000250 5a eb 85 3c 7b 75 87 bc ac cc 5a bc 8d 60 0e 3d
       0.016347576 -0.016535511 -0.013354462 0.034760047
000260 40 b3 ef bc dc 5d 26 3c 5c f0 5d bc d8 5f be 3b
       -0.029260278 0.010154214 -0.013546076 0.0058097653
000270 50 06 10 bd 50 19 5d bb b8 67 9d 3c 64 93 75 3c
       -0.03516227 -0.0033737011 0.019214496 0.014988754
000280 5e 08 e6 bc 20 81 96 3b 66 5d 71 bc be 06 f4 3c
       -0.028080162 0.0045930296 -0.014731741 0.029788371
000290 e0 5b 99 ba a5 33 03 3d 00 a0 1e 3b 40 d0 b3 bb
       -0.0011700355 0.032031674 0.0024204254 -0.005487472
0002a0 e8 ed eb bb c0 c9 70 3a 18 09 e3 bc c8 be aa bc
       -0.0071999915 0.00091853365 -0.027714297 -0.020842925
0002b0 00 dc c2 3b c0 9d d9 3b b6 69 ef 3c 41 5d 0a 3d
       0.005946636 0.0066411197 0.029225212 0.03378034
0002c0 28 6c e4 bc e6 51 c3 3c ed 9a 1e 3d 20 a2 87 3b
       -0.027883604 0.023842763 0.038721967 0.0041392
0002d0 bf bc 29 bd 2c d1 11 3c c4 00 60 3c 73 15 98 bc
       -0.041439768 0.008899968 0.013672058 -0.018564915
0002e0 7b ea 18 3d 74 28 3c 3c d0 37 7c bc 00 25 d8 3b
       0.037332993 0.011484254 -0.015394166 0.0065962076
0002f0 ac 6b 3f bc ac ef 69 bc f8 87 83 3c e3 6f ee bc
       -0.011683386 -0.014278334 0.016056046 -0.029106086
000300 be a6 b7 3c 66 53 c6 bc 16 95 cd 3c 1a 95 1e bd
       0.022418376 -0.02420969 0.025095504 -0.038716413
000310 73 a7 f9 bc 83 e4 e4 bc b6 dc ba bc 80 08 bd 3a
       -0.030475354 -0.027940994 -0.022810321 0.0014422089
000320 20 78 e5 bb 42 f6 c5 3c 78 e0 d2 3b 8b 6c 18 3d
       -0.0070028454 0.024165276 0.00643545 0.03721289
000330 d3 00 19 bd fa 6e b7 3c 30 25 1b bd 83 97 ad bc
       -0.0373543 0.022391785 -0.03787726 -0.02119041
000340 af 67 22 bd d2 35 ca 3c c0 78 23 ba 8e 07 1a bd
       -0.03964966 0.024683867 -0.00062359497 -0.03760486
000350 58 96 d9 bb 90 ca 68 3c 13 09 d5 bc b0 ee d5 bc
       -0.006640237 0.014208451 -0.026005303 -0.026114792
000360 7b 2d 26 3d 7c 96 1f bc 50 7d 02 bb f8 55 a2 3c
       0.040570717 -0.009740468 -0.0019911118 0.019816384
000370 9e 8e f5 bc 20 51 44 3c c0 22 25 3c a6 49 8a 3c
       -0.029975232 0.011982232 0.010079086 0.016880821
000380 50 85 3c 3c 08 6a bd bc f3 c8 24 3d f9 d7 10 3d
       0.011506394 -0.023121849 0.040230703 0.035362218
000390 64 9c 60 3c 6c 87 3c bc 20 c5 ae bb fc 68 1e bc
       0.013709161 -0.0115068965 -0.0053335577 -0.009668585
0003a0 2e e1 85 3c 22 bf 13 bd 42 17 ce 3c 76 d0 a7 bc
       0.016342726 -0.03607095 0.025157575 -0.020485144
0003b0 b7 7f 23 bd 8a 58 95 3c 43 b3 b4 bc 40 f0 11 bd
       -0.03991672 0.018230695 -0.022058135 -0.03562951
0003c0 20 db 84 bc e1 c0 20 3d 60 38 3d 3c 40 9b 74 bc
       -0.016217768 0.039246444 0.011549085 -0.014929593
0003d0 66 00 1a bd 59 30 1b 3d 34 d4 16 bc 5f b9 0f 3d
       -0.037598036 0.037887905 -0.009205867 0.035088893
0003e0 80 39 88 39 58 29 e2 3b 9a f5 cc 3c 34 12 74 3c
       0.00025982782 0.006901901 0.025019456 0.014896918
0003f0 42 50 d0 3c c8 76 d2 bb 50 a9 62 3b 68 a6 b0 bc
       0.025428895 -0.0064228512 0.0034585781 -0.021563724

bias f4 [32]
000000 e0 37 a6 bb 73 d1 f1 bc 76 9f ee 3c 78 b1 d6 bc
       -0.005072579 -0.029518818 0.029128771 -0.02620767
000010 66 31 fa bc 0c 17 4d bc 1d c1 12 3d 6c 20 51 bc
       -0.030541133 -0.012517702 0.0358287 -0.012764078
000020 e4 9f 0f 3c b8 55 e8 bb a6 a0 4c bc c6 3d ee 3c
       0.008766148 -0.0070902966 -0.012489473 0.02908219
000030 8d b5 1f 3d 67 ac 1f 3d 50 97 83 bc 68 12 84 3b
       0.0389915 0.038982775 -0.016063362 0.0040305145
000040 c0 2a 21 3c fd 74 2a 3d b0 a0 64 bb 65 57 04 3d
       0.009836853 0.041615475 -0.0034885816 0.03230991
000050 0a 61 9e 3c 73 09 c6 bc 9d f7 21 3d 41 f0 13 3d
       0.019333381 -0.024174428 0.039542783 0.036117796
000060 6a ec e7 3c d0 cb 71 bb d0 15 67 3b 90 cb 82 bc
       0.028310973 -0.0036895163 0.0035260804 -0.015966207
000070 db 7b 90 bc 2a 46 c9 3c 7c 2c 1f 3c 76 4f 91 3c
       -0.017637184 0.02456959 0.009715196 0.017738085
